{
  "nodes": [
    {
      "op": "null", 
      "name": "target", 
      "inputs": []
    }, 
    {
      "op": "null", 
      "name": "target_embed_weight", 
      "attrs": {"__shape__": "(13585, 512)"}, 
      "inputs": []
    }, 
    {
      "op": "Embedding", 
      "name": "target_embed_embed", 
      "attrs": {
        "input_dim": "13585", 
        "output_dim": "512"
      }, 
      "inputs": [[0, 0, 0], [1, 0, 0]]
    }, 
    {
      "op": "SliceChannel", 
      "name": "split3", 
      "attrs": {
        "axis": "1", 
        "num_outputs": "100", 
        "squeeze_axis": "True"
      }, 
      "inputs": [[2, 0, 0]]
    }, 
    {
      "op": "null", 
      "name": "source", 
      "inputs": []
    }, 
    {
      "op": "SliceChannel", 
      "name": "split0", 
      "attrs": {
        "axis": "2", 
        "num_outputs": "1", 
        "squeeze_axis": "True"
      }, 
      "inputs": [[4, 0, 0]]
    }, 
    {
      "op": "_zeros", 
      "name": "_zeros0", 
      "attrs": {
        "dtype": "float32", 
        "shape": "(1,)"
      }, 
      "inputs": []
    }, 
    {
      "op": "broadcast_not_equal", 
      "name": "broadcast_not_equal0", 
      "inputs": [[5, 0, 0], [6, 0, 0]]
    }, 
    {
      "op": "sum", 
      "name": "sum0", 
      "attrs": {"axis": "1"}, 
      "inputs": [[7, 0, 0]]
    }, 
    {
      "op": "zeros_like", 
      "name": "zeros_like1", 
      "inputs": [[8, 0, 0]]
    }, 
    {
      "op": "expand_dims", 
      "name": "expand_dims300", 
      "attrs": {"axis": "1"}, 
      "inputs": [[9, 0, 0]]
    }, 
    {
      "op": "tile", 
      "name": "tile0", 
      "attrs": {"reps": "(1, 1024)"}, 
      "inputs": [[10, 0, 0]]
    }, 
    {
      "op": "Concat", 
      "name": "decoder_rnn_concat_target_context_t0", 
      "attrs": {
        "dim": "1", 
        "num_args": "2"
      }, 
      "inputs": [[3, 0, 0], [11, 0, 0]]
    }, 
    {
      "op": "null", 
      "name": "decoder_rnn_l0_i2h_weight", 
      "inputs": []
    }, 
    {
      "op": "null", 
      "name": "decoder_rnn_l0_i2h_bias", 
      "attrs": {"__init__": "[\"lstmbias\", {\"forget_bias\": 0.0}]"}, 
      "inputs": []
    }, 
    {
      "op": "FullyConnected", 
      "name": "decoder_rnn_l0_t0_i2h", 
      "attrs": {"num_hidden": "4096"}, 
      "inputs": [[12, 0, 0], [13, 0, 0], [14, 0, 0]]
    }, 
    {
      "op": "SliceChannel", 
      "name": "source_embed_factor_split", 
      "attrs": {
        "axis": "2", 
        "num_outputs": "1", 
        "squeeze_axis": "True"
      }, 
      "inputs": [[4, 0, 0]]
    }, 
    {
      "op": "null", 
      "name": "source_embed_weight", 
      "attrs": {"__shape__": "(15989, 512)"}, 
      "inputs": []
    }, 
    {
      "op": "Embedding", 
      "name": "source_embed_embed", 
      "attrs": {
        "input_dim": "15989", 
        "output_dim": "512"
      }, 
      "inputs": [[16, 0, 0], [17, 0, 0]]
    }, 
    {
      "op": "SwapAxis", 
      "name": "swapaxes0", 
      "attrs": {
        "__layout__": "TNC", 
        "dim1": "0", 
        "dim2": "1"
      }, 
      "inputs": [[18, 0, 0]]
    }, 
    {
      "op": "SliceChannel", 
      "name": "split0", 
      "attrs": {
        "axis": "0", 
        "num_outputs": "100", 
        "squeeze_axis": "1"
      }, 
      "inputs": [[19, 0, 0]]
    }, 
    {
      "op": "null", 
      "name": "encoder_birnn_forward_l0_i2h_weight", 
      "inputs": []
    }, 
    {
      "op": "null", 
      "name": "encoder_birnn_forward_l0_i2h_bias", 
      "attrs": {"__init__": "[\"lstmbias\", {\"forget_bias\": 0.0}]"}, 
      "inputs": []
    }, 
    {
      "op": "FullyConnected", 
      "name": "encoder_birnn_forward_l0_t0_i2h", 
      "attrs": {"num_hidden": "2048"}, 
      "inputs": [[20, 0, 0], [21, 0, 0], [22, 0, 0]]
    }, 
    {
      "op": "_zeros", 
      "name": "encoder_birnn_forward_l0_begin_state_0", 
      "attrs": {
        "__layout__": "NC", 
        "dtype": "float32", 
        "shape": "(0, 512)"
      }, 
      "inputs": []
    }, 
    {
      "op": "null", 
      "name": "encoder_birnn_forward_l0_h2h_weight", 
      "inputs": []
    }, 
    {
      "op": "null", 
      "name": "encoder_birnn_forward_l0_h2h_bias", 
      "inputs": []
    }, 
    {
      "op": "FullyConnected", 
      "name": "encoder_birnn_forward_l0_t0_h2h", 
      "attrs": {"num_hidden": "2048"}, 
      "inputs": [[24, 0, 0], [25, 0, 0], [26, 0, 0]]
    }, 
    {
      "op": "elemwise_add", 
      "name": "_plus0", 
      "inputs": [[23, 0, 0], [27, 0, 0]]
    }, 
    {
      "op": "SliceChannel", 
      "name": "encoder_birnn_forward_l0_t0_slice", 
      "attrs": {"num_outputs": "4"}, 
      "inputs": [[28, 0, 0]]
    }, 
    {
      "op": "Activation", 
      "name": "encoder_birnn_forward_l0_t0_o", 
      "attrs": {"act_type": "sigmoid"}, 
      "inputs": [[29, 3, 0]]
    }, 
    {
      "op": "Activation", 
      "name": "encoder_birnn_forward_l0_t0_f", 
      "attrs": {"act_type": "sigmoid"}, 
      "inputs": [[29, 1, 0]]
    }, 
    {
      "op": "_zeros", 
      "name": "encoder_birnn_forward_l0_begin_state_1", 
      "attrs": {
        "__layout__": "NC", 
        "dtype": "float32", 
        "shape": "(0, 512)"
      }, 
      "inputs": []
    }, 
    {
      "op": "elemwise_mul", 
      "name": "_mul0", 
      "inputs": [[31, 0, 0], [32, 0, 0]]
    }, 
    {
      "op": "Activation", 
      "name": "encoder_birnn_forward_l0_t0_i", 
      "attrs": {"act_type": "sigmoid"}, 
      "inputs": [[29, 0, 0]]
    }, 
    {
      "op": "Activation", 
      "name": "encoder_birnn_forward_l0_t0_c", 
      "attrs": {"act_type": "tanh"}, 
      "inputs": [[29, 2, 0]]
    }, 
    {
      "op": "elemwise_mul", 
      "name": "_mul1", 
      "inputs": [[34, 0, 0], [35, 0, 0]]
    }, 
    {
      "op": "elemwise_add", 
      "name": "encoder_birnn_forward_l0_t0_state", 
      "inputs": [[33, 0, 0], [36, 0, 0]]
    }, 
    {
      "op": "Activation", 
      "name": "activation0", 
      "attrs": {"act_type": "tanh"}, 
      "inputs": [[37, 0, 0]]
    }, 
    {
      "op": "elemwise_mul", 
      "name": "encoder_birnn_forward_l0_t0_out", 
      "inputs": [[30, 0, 0], [38, 0, 0]]
    }, 
    {
      "op": "expand_dims", 
      "name": "expand_dims0", 
      "attrs": {"axis": "0"}, 
      "inputs": [[39, 0, 0]]
    }, 
    {
      "op": "FullyConnected", 
      "name": "encoder_birnn_forward_l0_t1_i2h", 
      "attrs": {"num_hidden": "2048"}, 
      "inputs": [[20, 1, 0], [21, 0, 0], [22, 0, 0]]
    }, 
    {
      "op": "FullyConnected", 
      "name": "encoder_birnn_forward_l0_t1_h2h", 
      "attrs": {"num_hidden": "2048"}, 
      "inputs": [[39, 0, 0], [25, 0, 0], [26, 0, 0]]
    }, 
    {
      "op": "elemwise_add", 
      "name": "_plus1", 
      "inputs": [[41, 0, 0], [42, 0, 0]]
    }, 
    {
      "op": "SliceChannel", 
      "name": "encoder_birnn_forward_l0_t1_slice", 
      "attrs": {"num_outputs": "4"}, 
      "inputs": [[43, 0, 0]]
    }, 
    {
      "op": "Activation", 
      "name": "encoder_birnn_forward_l0_t1_o", 
      "attrs": {"act_type": "sigmoid"}, 
      "inputs": [[44, 3, 0]]
    }, 
    {
      "op": "Activation", 
      "name": "encoder_birnn_forward_l0_t1_f", 
      "attrs": {"act_type": "sigmoid"}, 
      "inputs": [[44, 1, 0]]
    }, 
    {
      "op": "elemwise_mul", 
      "name": "_mul2", 
      "inputs": [[46, 0, 0], [37, 0, 0]]
    }, 
    {
      "op": "Activation", 
      "name": "encoder_birnn_forward_l0_t1_i", 
      "attrs": {"act_type": "sigmoid"}, 
      "inputs": [[44, 0, 0]]
    }, 
    {
      "op": "Activation", 
      "name": "encoder_birnn_forward_l0_t1_c", 
      "attrs": {"act_type": "tanh"}, 
      "inputs": [[44, 2, 0]]
    }, 
    {
      "op": "elemwise_mul", 
      "name": "_mul3", 
      "inputs": [[48, 0, 0], [49, 0, 0]]
    }, 
    {
      "op": "elemwise_add", 
      "name": "encoder_birnn_forward_l0_t1_state", 
      "inputs": [[47, 0, 0], [50, 0, 0]]
    }, 
    {
      "op": "Activation", 
      "name": "activation1", 
      "attrs": {"act_type": "tanh"}, 
      "inputs": [[51, 0, 0]]
    }, 
    {
      "op": "elemwise_mul", 
      "name": "encoder_birnn_forward_l0_t1_out", 
      "inputs": [[45, 0, 0], [52, 0, 0]]
    }, 
    {
      "op": "expand_dims", 
      "name": "expand_dims1", 
      "attrs": {"axis": "0"}, 
      "inputs": [[53, 0, 0]]
    }, 
    {
      "op": "FullyConnected", 
      "name": "encoder_birnn_forward_l0_t2_i2h", 
      "attrs": {"num_hidden": "2048"}, 
      "inputs": [[20, 2, 0], [21, 0, 0], [22, 0, 0]]
    }, 
    {
      "op": "FullyConnected", 
      "name": "encoder_birnn_forward_l0_t2_h2h", 
      "attrs": {"num_hidden": "2048"}, 
      "inputs": [[53, 0, 0], [25, 0, 0], [26, 0, 0]]
    }, 
    {
      "op": "elemwise_add", 
      "name": "_plus2", 
      "inputs": [[55, 0, 0], [56, 0, 0]]
    }, 
    {
      "op": "SliceChannel", 
      "name": "encoder_birnn_forward_l0_t2_slice", 
      "attrs": {"num_outputs": "4"}, 
      "inputs": [[57, 0, 0]]
    }, 
    {
      "op": "Activation", 
      "name": "encoder_birnn_forward_l0_t2_o", 
      "attrs": {"act_type": "sigmoid"}, 
      "inputs": [[58, 3, 0]]
    }, 
    {
      "op": "Activation", 
      "name": "encoder_birnn_forward_l0_t2_f", 
      "attrs": {"act_type": "sigmoid"}, 
      "inputs": [[58, 1, 0]]
    }, 
    {
      "op": "elemwise_mul", 
      "name": "_mul4", 
      "inputs": [[60, 0, 0], [51, 0, 0]]
    }, 
    {
      "op": "Activation", 
      "name": "encoder_birnn_forward_l0_t2_i", 
      "attrs": {"act_type": "sigmoid"}, 
      "inputs": [[58, 0, 0]]
    }, 
    {
      "op": "Activation", 
      "name": "encoder_birnn_forward_l0_t2_c", 
      "attrs": {"act_type": "tanh"}, 
      "inputs": [[58, 2, 0]]
    }, 
    {
      "op": "elemwise_mul", 
      "name": "_mul5", 
      "inputs": [[62, 0, 0], [63, 0, 0]]
    }, 
    {
      "op": "elemwise_add", 
      "name": "encoder_birnn_forward_l0_t2_state", 
      "inputs": [[61, 0, 0], [64, 0, 0]]
    }, 
    {
      "op": "Activation", 
      "name": "activation2", 
      "attrs": {"act_type": "tanh"}, 
      "inputs": [[65, 0, 0]]
    }, 
    {
      "op": "elemwise_mul", 
      "name": "encoder_birnn_forward_l0_t2_out", 
      "inputs": [[59, 0, 0], [66, 0, 0]]
    }, 
    {
      "op": "expand_dims", 
      "name": "expand_dims2", 
      "attrs": {"axis": "0"}, 
      "inputs": [[67, 0, 0]]
    }, 
    {
      "op": "FullyConnected", 
      "name": "encoder_birnn_forward_l0_t3_i2h", 
      "attrs": {"num_hidden": "2048"}, 
      "inputs": [[20, 3, 0], [21, 0, 0], [22, 0, 0]]
    }, 
    {
      "op": "FullyConnected", 
      "name": "encoder_birnn_forward_l0_t3_h2h", 
      "attrs": {"num_hidden": "2048"}, 
      "inputs": [[67, 0, 0], [25, 0, 0], [26, 0, 0]]
    }, 
    {
      "op": "elemwise_add", 
      "name": "_plus3", 
      "inputs": [[69, 0, 0], [70, 0, 0]]
    }, 
    {
      "op": "SliceChannel", 
      "name": "encoder_birnn_forward_l0_t3_slice", 
      "attrs": {"num_outputs": "4"}, 
      "inputs": [[71, 0, 0]]
    }, 
    {
      "op": "Activation", 
      "name": "encoder_birnn_forward_l0_t3_o", 
      "attrs": {"act_type": "sigmoid"}, 
      "inputs": [[72, 3, 0]]
    }, 
    {
      "op": "Activation", 
      "name": "encoder_birnn_forward_l0_t3_f", 
      "attrs": {"act_type": "sigmoid"}, 
      "inputs": [[72, 1, 0]]
    }, 
    {
      "op": "elemwise_mul", 
      "name": "_mul6", 
      "inputs": [[74, 0, 0], [65, 0, 0]]
    }, 
    {
      "op": "Activation", 
      "name": "encoder_birnn_forward_l0_t3_i", 
      "attrs": {"act_type": "sigmoid"}, 
      "inputs": [[72, 0, 0]]
    }, 
    {
      "op": "Activation", 
      "name": "encoder_birnn_forward_l0_t3_c", 
      "attrs": {"act_type": "tanh"}, 
      "inputs": [[72, 2, 0]]
    }, 
    {
      "op": "elemwise_mul", 
      "name": "_mul7", 
      "inputs": [[76, 0, 0], [77, 0, 0]]
    }, 
    {
      "op": "elemwise_add", 
      "name": "encoder_birnn_forward_l0_t3_state", 
      "inputs": [[75, 0, 0], [78, 0, 0]]
    }, 
    {
      "op": "Activation", 
      "name": "activation3", 
      "attrs": {"act_type": "tanh"}, 
      "inputs": [[79, 0, 0]]
    }, 
    {
      "op": "elemwise_mul", 
      "name": "encoder_birnn_forward_l0_t3_out", 
      "inputs": [[73, 0, 0], [80, 0, 0]]
    }, 
    {
      "op": "expand_dims", 
      "name": "expand_dims3", 
      "attrs": {"axis": "0"}, 
      "inputs": [[81, 0, 0]]
    }, 
    {
      "op": "FullyConnected", 
      "name": "encoder_birnn_forward_l0_t4_i2h", 
      "attrs": {"num_hidden": "2048"}, 
      "inputs": [[20, 4, 0], [21, 0, 0], [22, 0, 0]]
    }, 
    {
      "op": "FullyConnected", 
      "name": "encoder_birnn_forward_l0_t4_h2h", 
      "attrs": {"num_hidden": "2048"}, 
      "inputs": [[81, 0, 0], [25, 0, 0], [26, 0, 0]]
    }, 
    {
      "op": "elemwise_add", 
      "name": "_plus4", 
      "inputs": [[83, 0, 0], [84, 0, 0]]
    }, 
    {
      "op": "SliceChannel", 
      "name": "encoder_birnn_forward_l0_t4_slice", 
      "attrs": {"num_outputs": "4"}, 
      "inputs": [[85, 0, 0]]
    }, 
    {
      "op": "Activation", 
      "name": "encoder_birnn_forward_l0_t4_o", 
      "attrs": {"act_type": "sigmoid"}, 
      "inputs": [[86, 3, 0]]
    }, 
    {
      "op": "Activation", 
      "name": "encoder_birnn_forward_l0_t4_f", 
      "attrs": {"act_type": "sigmoid"}, 
      "inputs": [[86, 1, 0]]
    }, 
    {
      "op": "elemwise_mul", 
      "name": "_mul8", 
      "inputs": [[88, 0, 0], [79, 0, 0]]
    }, 
    {
      "op": "Activation", 
      "name": "encoder_birnn_forward_l0_t4_i", 
      "attrs": {"act_type": "sigmoid"}, 
      "inputs": [[86, 0, 0]]
    }, 
    {
      "op": "Activation", 
      "name": "encoder_birnn_forward_l0_t4_c", 
      "attrs": {"act_type": "tanh"}, 
      "inputs": [[86, 2, 0]]
    }, 
    {
      "op": "elemwise_mul", 
      "name": "_mul9", 
      "inputs": [[90, 0, 0], [91, 0, 0]]
    }, 
    {
      "op": "elemwise_add", 
      "name": "encoder_birnn_forward_l0_t4_state", 
      "inputs": [[89, 0, 0], [92, 0, 0]]
    }, 
    {
      "op": "Activation", 
      "name": "activation4", 
      "attrs": {"act_type": "tanh"}, 
      "inputs": [[93, 0, 0]]
    }, 
    {
      "op": "elemwise_mul", 
      "name": "encoder_birnn_forward_l0_t4_out", 
      "inputs": [[87, 0, 0], [94, 0, 0]]
    }, 
    {
      "op": "expand_dims", 
      "name": "expand_dims4", 
      "attrs": {"axis": "0"}, 
      "inputs": [[95, 0, 0]]
    }, 
    {
      "op": "FullyConnected", 
      "name": "encoder_birnn_forward_l0_t5_i2h", 
      "attrs": {"num_hidden": "2048"}, 
      "inputs": [[20, 5, 0], [21, 0, 0], [22, 0, 0]]
    }, 
    {
      "op": "FullyConnected", 
      "name": "encoder_birnn_forward_l0_t5_h2h", 
      "attrs": {"num_hidden": "2048"}, 
      "inputs": [[95, 0, 0], [25, 0, 0], [26, 0, 0]]
    }, 
    {
      "op": "elemwise_add", 
      "name": "_plus5", 
      "inputs": [[97, 0, 0], [98, 0, 0]]
    }, 
    {
      "op": "SliceChannel", 
      "name": "encoder_birnn_forward_l0_t5_slice", 
      "attrs": {"num_outputs": "4"}, 
      "inputs": [[99, 0, 0]]
    }, 
    {
      "op": "Activation", 
      "name": "encoder_birnn_forward_l0_t5_o", 
      "attrs": {"act_type": "sigmoid"}, 
      "inputs": [[100, 3, 0]]
    }, 
    {
      "op": "Activation", 
      "name": "encoder_birnn_forward_l0_t5_f", 
      "attrs": {"act_type": "sigmoid"}, 
      "inputs": [[100, 1, 0]]
    }, 
    {
      "op": "elemwise_mul", 
      "name": "_mul10", 
      "inputs": [[102, 0, 0], [93, 0, 0]]
    }, 
    {
      "op": "Activation", 
      "name": "encoder_birnn_forward_l0_t5_i", 
      "attrs": {"act_type": "sigmoid"}, 
      "inputs": [[100, 0, 0]]
    }, 
    {
      "op": "Activation", 
      "name": "encoder_birnn_forward_l0_t5_c", 
      "attrs": {"act_type": "tanh"}, 
      "inputs": [[100, 2, 0]]
    }, 
    {
      "op": "elemwise_mul", 
      "name": "_mul11", 
      "inputs": [[104, 0, 0], [105, 0, 0]]
    }, 
    {
      "op": "elemwise_add", 
      "name": "encoder_birnn_forward_l0_t5_state", 
      "inputs": [[103, 0, 0], [106, 0, 0]]
    }, 
    {
      "op": "Activation", 
      "name": "activation5", 
      "attrs": {"act_type": "tanh"}, 
      "inputs": [[107, 0, 0]]
    }, 
    {
      "op": "elemwise_mul", 
      "name": "encoder_birnn_forward_l0_t5_out", 
      "inputs": [[101, 0, 0], [108, 0, 0]]
    }, 
    {
      "op": "expand_dims", 
      "name": "expand_dims5", 
      "attrs": {"axis": "0"}, 
      "inputs": [[109, 0, 0]]
    }, 
    {
      "op": "FullyConnected", 
      "name": "encoder_birnn_forward_l0_t6_i2h", 
      "attrs": {"num_hidden": "2048"}, 
      "inputs": [[20, 6, 0], [21, 0, 0], [22, 0, 0]]
    }, 
    {
      "op": "FullyConnected", 
      "name": "encoder_birnn_forward_l0_t6_h2h", 
      "attrs": {"num_hidden": "2048"}, 
      "inputs": [[109, 0, 0], [25, 0, 0], [26, 0, 0]]
    }, 
    {
      "op": "elemwise_add", 
      "name": "_plus6", 
      "inputs": [[111, 0, 0], [112, 0, 0]]
    }, 
    {
      "op": "SliceChannel", 
      "name": "encoder_birnn_forward_l0_t6_slice", 
      "attrs": {"num_outputs": "4"}, 
      "inputs": [[113, 0, 0]]
    }, 
    {
      "op": "Activation", 
      "name": "encoder_birnn_forward_l0_t6_o", 
      "attrs": {"act_type": "sigmoid"}, 
      "inputs": [[114, 3, 0]]
    }, 
    {
      "op": "Activation", 
      "name": "encoder_birnn_forward_l0_t6_f", 
      "attrs": {"act_type": "sigmoid"}, 
      "inputs": [[114, 1, 0]]
    }, 
    {
      "op": "elemwise_mul", 
      "name": "_mul12", 
      "inputs": [[116, 0, 0], [107, 0, 0]]
    }, 
    {
      "op": "Activation", 
      "name": "encoder_birnn_forward_l0_t6_i", 
      "attrs": {"act_type": "sigmoid"}, 
      "inputs": [[114, 0, 0]]
    }, 
    {
      "op": "Activation", 
      "name": "encoder_birnn_forward_l0_t6_c", 
      "attrs": {"act_type": "tanh"}, 
      "inputs": [[114, 2, 0]]
    }, 
    {
      "op": "elemwise_mul", 
      "name": "_mul13", 
      "inputs": [[118, 0, 0], [119, 0, 0]]
    }, 
    {
      "op": "elemwise_add", 
      "name": "encoder_birnn_forward_l0_t6_state", 
      "inputs": [[117, 0, 0], [120, 0, 0]]
    }, 
    {
      "op": "Activation", 
      "name": "activation6", 
      "attrs": {"act_type": "tanh"}, 
      "inputs": [[121, 0, 0]]
    }, 
    {
      "op": "elemwise_mul", 
      "name": "encoder_birnn_forward_l0_t6_out", 
      "inputs": [[115, 0, 0], [122, 0, 0]]
    }, 
    {
      "op": "expand_dims", 
      "name": "expand_dims6", 
      "attrs": {"axis": "0"}, 
      "inputs": [[123, 0, 0]]
    }, 
    {
      "op": "FullyConnected", 
      "name": "encoder_birnn_forward_l0_t7_i2h", 
      "attrs": {"num_hidden": "2048"}, 
      "inputs": [[20, 7, 0], [21, 0, 0], [22, 0, 0]]
    }, 
    {
      "op": "FullyConnected", 
      "name": "encoder_birnn_forward_l0_t7_h2h", 
      "attrs": {"num_hidden": "2048"}, 
      "inputs": [[123, 0, 0], [25, 0, 0], [26, 0, 0]]
    }, 
    {
      "op": "elemwise_add", 
      "name": "_plus7", 
      "inputs": [[125, 0, 0], [126, 0, 0]]
    }, 
    {
      "op": "SliceChannel", 
      "name": "encoder_birnn_forward_l0_t7_slice", 
      "attrs": {"num_outputs": "4"}, 
      "inputs": [[127, 0, 0]]
    }, 
    {
      "op": "Activation", 
      "name": "encoder_birnn_forward_l0_t7_o", 
      "attrs": {"act_type": "sigmoid"}, 
      "inputs": [[128, 3, 0]]
    }, 
    {
      "op": "Activation", 
      "name": "encoder_birnn_forward_l0_t7_f", 
      "attrs": {"act_type": "sigmoid"}, 
      "inputs": [[128, 1, 0]]
    }, 
    {
      "op": "elemwise_mul", 
      "name": "_mul14", 
      "inputs": [[130, 0, 0], [121, 0, 0]]
    }, 
    {
      "op": "Activation", 
      "name": "encoder_birnn_forward_l0_t7_i", 
      "attrs": {"act_type": "sigmoid"}, 
      "inputs": [[128, 0, 0]]
    }, 
    {
      "op": "Activation", 
      "name": "encoder_birnn_forward_l0_t7_c", 
      "attrs": {"act_type": "tanh"}, 
      "inputs": [[128, 2, 0]]
    }, 
    {
      "op": "elemwise_mul", 
      "name": "_mul15", 
      "inputs": [[132, 0, 0], [133, 0, 0]]
    }, 
    {
      "op": "elemwise_add", 
      "name": "encoder_birnn_forward_l0_t7_state", 
      "inputs": [[131, 0, 0], [134, 0, 0]]
    }, 
    {
      "op": "Activation", 
      "name": "activation7", 
      "attrs": {"act_type": "tanh"}, 
      "inputs": [[135, 0, 0]]
    }, 
    {
      "op": "elemwise_mul", 
      "name": "encoder_birnn_forward_l0_t7_out", 
      "inputs": [[129, 0, 0], [136, 0, 0]]
    }, 
    {
      "op": "expand_dims", 
      "name": "expand_dims7", 
      "attrs": {"axis": "0"}, 
      "inputs": [[137, 0, 0]]
    }, 
    {
      "op": "FullyConnected", 
      "name": "encoder_birnn_forward_l0_t8_i2h", 
      "attrs": {"num_hidden": "2048"}, 
      "inputs": [[20, 8, 0], [21, 0, 0], [22, 0, 0]]
    }, 
    {
      "op": "FullyConnected", 
      "name": "encoder_birnn_forward_l0_t8_h2h", 
      "attrs": {"num_hidden": "2048"}, 
      "inputs": [[137, 0, 0], [25, 0, 0], [26, 0, 0]]
    }, 
    {
      "op": "elemwise_add", 
      "name": "_plus8", 
      "inputs": [[139, 0, 0], [140, 0, 0]]
    }, 
    {
      "op": "SliceChannel", 
      "name": "encoder_birnn_forward_l0_t8_slice", 
      "attrs": {"num_outputs": "4"}, 
      "inputs": [[141, 0, 0]]
    }, 
    {
      "op": "Activation", 
      "name": "encoder_birnn_forward_l0_t8_o", 
      "attrs": {"act_type": "sigmoid"}, 
      "inputs": [[142, 3, 0]]
    }, 
    {
      "op": "Activation", 
      "name": "encoder_birnn_forward_l0_t8_f", 
      "attrs": {"act_type": "sigmoid"}, 
      "inputs": [[142, 1, 0]]
    }, 
    {
      "op": "elemwise_mul", 
      "name": "_mul16", 
      "inputs": [[144, 0, 0], [135, 0, 0]]
    }, 
    {
      "op": "Activation", 
      "name": "encoder_birnn_forward_l0_t8_i", 
      "attrs": {"act_type": "sigmoid"}, 
      "inputs": [[142, 0, 0]]
    }, 
    {
      "op": "Activation", 
      "name": "encoder_birnn_forward_l0_t8_c", 
      "attrs": {"act_type": "tanh"}, 
      "inputs": [[142, 2, 0]]
    }, 
    {
      "op": "elemwise_mul", 
      "name": "_mul17", 
      "inputs": [[146, 0, 0], [147, 0, 0]]
    }, 
    {
      "op": "elemwise_add", 
      "name": "encoder_birnn_forward_l0_t8_state", 
      "inputs": [[145, 0, 0], [148, 0, 0]]
    }, 
    {
      "op": "Activation", 
      "name": "activation8", 
      "attrs": {"act_type": "tanh"}, 
      "inputs": [[149, 0, 0]]
    }, 
    {
      "op": "elemwise_mul", 
      "name": "encoder_birnn_forward_l0_t8_out", 
      "inputs": [[143, 0, 0], [150, 0, 0]]
    }, 
    {
      "op": "expand_dims", 
      "name": "expand_dims8", 
      "attrs": {"axis": "0"}, 
      "inputs": [[151, 0, 0]]
    }, 
    {
      "op": "FullyConnected", 
      "name": "encoder_birnn_forward_l0_t9_i2h", 
      "attrs": {"num_hidden": "2048"}, 
      "inputs": [[20, 9, 0], [21, 0, 0], [22, 0, 0]]
    }, 
    {
      "op": "FullyConnected", 
      "name": "encoder_birnn_forward_l0_t9_h2h", 
      "attrs": {"num_hidden": "2048"}, 
      "inputs": [[151, 0, 0], [25, 0, 0], [26, 0, 0]]
    }, 
    {
      "op": "elemwise_add", 
      "name": "_plus9", 
      "inputs": [[153, 0, 0], [154, 0, 0]]
    }, 
    {
      "op": "SliceChannel", 
      "name": "encoder_birnn_forward_l0_t9_slice", 
      "attrs": {"num_outputs": "4"}, 
      "inputs": [[155, 0, 0]]
    }, 
    {
      "op": "Activation", 
      "name": "encoder_birnn_forward_l0_t9_o", 
      "attrs": {"act_type": "sigmoid"}, 
      "inputs": [[156, 3, 0]]
    }, 
    {
      "op": "Activation", 
      "name": "encoder_birnn_forward_l0_t9_f", 
      "attrs": {"act_type": "sigmoid"}, 
      "inputs": [[156, 1, 0]]
    }, 
    {
      "op": "elemwise_mul", 
      "name": "_mul18", 
      "inputs": [[158, 0, 0], [149, 0, 0]]
    }, 
    {
      "op": "Activation", 
      "name": "encoder_birnn_forward_l0_t9_i", 
      "attrs": {"act_type": "sigmoid"}, 
      "inputs": [[156, 0, 0]]
    }, 
    {
      "op": "Activation", 
      "name": "encoder_birnn_forward_l0_t9_c", 
      "attrs": {"act_type": "tanh"}, 
      "inputs": [[156, 2, 0]]
    }, 
    {
      "op": "elemwise_mul", 
      "name": "_mul19", 
      "inputs": [[160, 0, 0], [161, 0, 0]]
    }, 
    {
      "op": "elemwise_add", 
      "name": "encoder_birnn_forward_l0_t9_state", 
      "inputs": [[159, 0, 0], [162, 0, 0]]
    }, 
    {
      "op": "Activation", 
      "name": "activation9", 
      "attrs": {"act_type": "tanh"}, 
      "inputs": [[163, 0, 0]]
    }, 
    {
      "op": "elemwise_mul", 
      "name": "encoder_birnn_forward_l0_t9_out", 
      "inputs": [[157, 0, 0], [164, 0, 0]]
    }, 
    {
      "op": "expand_dims", 
      "name": "expand_dims9", 
      "attrs": {"axis": "0"}, 
      "inputs": [[165, 0, 0]]
    }, 
    {
      "op": "FullyConnected", 
      "name": "encoder_birnn_forward_l0_t10_i2h", 
      "attrs": {"num_hidden": "2048"}, 
      "inputs": [[20, 10, 0], [21, 0, 0], [22, 0, 0]]
    }, 
    {
      "op": "FullyConnected", 
      "name": "encoder_birnn_forward_l0_t10_h2h", 
      "attrs": {"num_hidden": "2048"}, 
      "inputs": [[165, 0, 0], [25, 0, 0], [26, 0, 0]]
    }, 
    {
      "op": "elemwise_add", 
      "name": "_plus10", 
      "inputs": [[167, 0, 0], [168, 0, 0]]
    }, 
    {
      "op": "SliceChannel", 
      "name": "encoder_birnn_forward_l0_t10_slice", 
      "attrs": {"num_outputs": "4"}, 
      "inputs": [[169, 0, 0]]
    }, 
    {
      "op": "Activation", 
      "name": "encoder_birnn_forward_l0_t10_o", 
      "attrs": {"act_type": "sigmoid"}, 
      "inputs": [[170, 3, 0]]
    }, 
    {
      "op": "Activation", 
      "name": "encoder_birnn_forward_l0_t10_f", 
      "attrs": {"act_type": "sigmoid"}, 
      "inputs": [[170, 1, 0]]
    }, 
    {
      "op": "elemwise_mul", 
      "name": "_mul20", 
      "inputs": [[172, 0, 0], [163, 0, 0]]
    }, 
    {
      "op": "Activation", 
      "name": "encoder_birnn_forward_l0_t10_i", 
      "attrs": {"act_type": "sigmoid"}, 
      "inputs": [[170, 0, 0]]
    }, 
    {
      "op": "Activation", 
      "name": "encoder_birnn_forward_l0_t10_c", 
      "attrs": {"act_type": "tanh"}, 
      "inputs": [[170, 2, 0]]
    }, 
    {
      "op": "elemwise_mul", 
      "name": "_mul21", 
      "inputs": [[174, 0, 0], [175, 0, 0]]
    }, 
    {
      "op": "elemwise_add", 
      "name": "encoder_birnn_forward_l0_t10_state", 
      "inputs": [[173, 0, 0], [176, 0, 0]]
    }, 
    {
      "op": "Activation", 
      "name": "activation10", 
      "attrs": {"act_type": "tanh"}, 
      "inputs": [[177, 0, 0]]
    }, 
    {
      "op": "elemwise_mul", 
      "name": "encoder_birnn_forward_l0_t10_out", 
      "inputs": [[171, 0, 0], [178, 0, 0]]
    }, 
    {
      "op": "expand_dims", 
      "name": "expand_dims10", 
      "attrs": {"axis": "0"}, 
      "inputs": [[179, 0, 0]]
    }, 
    {
      "op": "FullyConnected", 
      "name": "encoder_birnn_forward_l0_t11_i2h", 
      "attrs": {"num_hidden": "2048"}, 
      "inputs": [[20, 11, 0], [21, 0, 0], [22, 0, 0]]
    }, 
    {
      "op": "FullyConnected", 
      "name": "encoder_birnn_forward_l0_t11_h2h", 
      "attrs": {"num_hidden": "2048"}, 
      "inputs": [[179, 0, 0], [25, 0, 0], [26, 0, 0]]
    }, 
    {
      "op": "elemwise_add", 
      "name": "_plus11", 
      "inputs": [[181, 0, 0], [182, 0, 0]]
    }, 
    {
      "op": "SliceChannel", 
      "name": "encoder_birnn_forward_l0_t11_slice", 
      "attrs": {"num_outputs": "4"}, 
      "inputs": [[183, 0, 0]]
    }, 
    {
      "op": "Activation", 
      "name": "encoder_birnn_forward_l0_t11_o", 
      "attrs": {"act_type": "sigmoid"}, 
      "inputs": [[184, 3, 0]]
    }, 
    {
      "op": "Activation", 
      "name": "encoder_birnn_forward_l0_t11_f", 
      "attrs": {"act_type": "sigmoid"}, 
      "inputs": [[184, 1, 0]]
    }, 
    {
      "op": "elemwise_mul", 
      "name": "_mul22", 
      "inputs": [[186, 0, 0], [177, 0, 0]]
    }, 
    {
      "op": "Activation", 
      "name": "encoder_birnn_forward_l0_t11_i", 
      "attrs": {"act_type": "sigmoid"}, 
      "inputs": [[184, 0, 0]]
    }, 
    {
      "op": "Activation", 
      "name": "encoder_birnn_forward_l0_t11_c", 
      "attrs": {"act_type": "tanh"}, 
      "inputs": [[184, 2, 0]]
    }, 
    {
      "op": "elemwise_mul", 
      "name": "_mul23", 
      "inputs": [[188, 0, 0], [189, 0, 0]]
    }, 
    {
      "op": "elemwise_add", 
      "name": "encoder_birnn_forward_l0_t11_state", 
      "inputs": [[187, 0, 0], [190, 0, 0]]
    }, 
    {
      "op": "Activation", 
      "name": "activation11", 
      "attrs": {"act_type": "tanh"}, 
      "inputs": [[191, 0, 0]]
    }, 
    {
      "op": "elemwise_mul", 
      "name": "encoder_birnn_forward_l0_t11_out", 
      "inputs": [[185, 0, 0], [192, 0, 0]]
    }, 
    {
      "op": "expand_dims", 
      "name": "expand_dims11", 
      "attrs": {"axis": "0"}, 
      "inputs": [[193, 0, 0]]
    }, 
    {
      "op": "FullyConnected", 
      "name": "encoder_birnn_forward_l0_t12_i2h", 
      "attrs": {"num_hidden": "2048"}, 
      "inputs": [[20, 12, 0], [21, 0, 0], [22, 0, 0]]
    }, 
    {
      "op": "FullyConnected", 
      "name": "encoder_birnn_forward_l0_t12_h2h", 
      "attrs": {"num_hidden": "2048"}, 
      "inputs": [[193, 0, 0], [25, 0, 0], [26, 0, 0]]
    }, 
    {
      "op": "elemwise_add", 
      "name": "_plus12", 
      "inputs": [[195, 0, 0], [196, 0, 0]]
    }, 
    {
      "op": "SliceChannel", 
      "name": "encoder_birnn_forward_l0_t12_slice", 
      "attrs": {"num_outputs": "4"}, 
      "inputs": [[197, 0, 0]]
    }, 
    {
      "op": "Activation", 
      "name": "encoder_birnn_forward_l0_t12_o", 
      "attrs": {"act_type": "sigmoid"}, 
      "inputs": [[198, 3, 0]]
    }, 
    {
      "op": "Activation", 
      "name": "encoder_birnn_forward_l0_t12_f", 
      "attrs": {"act_type": "sigmoid"}, 
      "inputs": [[198, 1, 0]]
    }, 
    {
      "op": "elemwise_mul", 
      "name": "_mul24", 
      "inputs": [[200, 0, 0], [191, 0, 0]]
    }, 
    {
      "op": "Activation", 
      "name": "encoder_birnn_forward_l0_t12_i", 
      "attrs": {"act_type": "sigmoid"}, 
      "inputs": [[198, 0, 0]]
    }, 
    {
      "op": "Activation", 
      "name": "encoder_birnn_forward_l0_t12_c", 
      "attrs": {"act_type": "tanh"}, 
      "inputs": [[198, 2, 0]]
    }, 
    {
      "op": "elemwise_mul", 
      "name": "_mul25", 
      "inputs": [[202, 0, 0], [203, 0, 0]]
    }, 
    {
      "op": "elemwise_add", 
      "name": "encoder_birnn_forward_l0_t12_state", 
      "inputs": [[201, 0, 0], [204, 0, 0]]
    }, 
    {
      "op": "Activation", 
      "name": "activation12", 
      "attrs": {"act_type": "tanh"}, 
      "inputs": [[205, 0, 0]]
    }, 
    {
      "op": "elemwise_mul", 
      "name": "encoder_birnn_forward_l0_t12_out", 
      "inputs": [[199, 0, 0], [206, 0, 0]]
    }, 
    {
      "op": "expand_dims", 
      "name": "expand_dims12", 
      "attrs": {"axis": "0"}, 
      "inputs": [[207, 0, 0]]
    }, 
    {
      "op": "FullyConnected", 
      "name": "encoder_birnn_forward_l0_t13_i2h", 
      "attrs": {"num_hidden": "2048"}, 
      "inputs": [[20, 13, 0], [21, 0, 0], [22, 0, 0]]
    }, 
    {
      "op": "FullyConnected", 
      "name": "encoder_birnn_forward_l0_t13_h2h", 
      "attrs": {"num_hidden": "2048"}, 
      "inputs": [[207, 0, 0], [25, 0, 0], [26, 0, 0]]
    }, 
    {
      "op": "elemwise_add", 
      "name": "_plus13", 
      "inputs": [[209, 0, 0], [210, 0, 0]]
    }, 
    {
      "op": "SliceChannel", 
      "name": "encoder_birnn_forward_l0_t13_slice", 
      "attrs": {"num_outputs": "4"}, 
      "inputs": [[211, 0, 0]]
    }, 
    {
      "op": "Activation", 
      "name": "encoder_birnn_forward_l0_t13_o", 
      "attrs": {"act_type": "sigmoid"}, 
      "inputs": [[212, 3, 0]]
    }, 
    {
      "op": "Activation", 
      "name": "encoder_birnn_forward_l0_t13_f", 
      "attrs": {"act_type": "sigmoid"}, 
      "inputs": [[212, 1, 0]]
    }, 
    {
      "op": "elemwise_mul", 
      "name": "_mul26", 
      "inputs": [[214, 0, 0], [205, 0, 0]]
    }, 
    {
      "op": "Activation", 
      "name": "encoder_birnn_forward_l0_t13_i", 
      "attrs": {"act_type": "sigmoid"}, 
      "inputs": [[212, 0, 0]]
    }, 
    {
      "op": "Activation", 
      "name": "encoder_birnn_forward_l0_t13_c", 
      "attrs": {"act_type": "tanh"}, 
      "inputs": [[212, 2, 0]]
    }, 
    {
      "op": "elemwise_mul", 
      "name": "_mul27", 
      "inputs": [[216, 0, 0], [217, 0, 0]]
    }, 
    {
      "op": "elemwise_add", 
      "name": "encoder_birnn_forward_l0_t13_state", 
      "inputs": [[215, 0, 0], [218, 0, 0]]
    }, 
    {
      "op": "Activation", 
      "name": "activation13", 
      "attrs": {"act_type": "tanh"}, 
      "inputs": [[219, 0, 0]]
    }, 
    {
      "op": "elemwise_mul", 
      "name": "encoder_birnn_forward_l0_t13_out", 
      "inputs": [[213, 0, 0], [220, 0, 0]]
    }, 
    {
      "op": "expand_dims", 
      "name": "expand_dims13", 
      "attrs": {"axis": "0"}, 
      "inputs": [[221, 0, 0]]
    }, 
    {
      "op": "FullyConnected", 
      "name": "encoder_birnn_forward_l0_t14_i2h", 
      "attrs": {"num_hidden": "2048"}, 
      "inputs": [[20, 14, 0], [21, 0, 0], [22, 0, 0]]
    }, 
    {
      "op": "FullyConnected", 
      "name": "encoder_birnn_forward_l0_t14_h2h", 
      "attrs": {"num_hidden": "2048"}, 
      "inputs": [[221, 0, 0], [25, 0, 0], [26, 0, 0]]
    }, 
    {
      "op": "elemwise_add", 
      "name": "_plus14", 
      "inputs": [[223, 0, 0], [224, 0, 0]]
    }, 
    {
      "op": "SliceChannel", 
      "name": "encoder_birnn_forward_l0_t14_slice", 
      "attrs": {"num_outputs": "4"}, 
      "inputs": [[225, 0, 0]]
    }, 
    {
      "op": "Activation", 
      "name": "encoder_birnn_forward_l0_t14_o", 
      "attrs": {"act_type": "sigmoid"}, 
      "inputs": [[226, 3, 0]]
    }, 
    {
      "op": "Activation", 
      "name": "encoder_birnn_forward_l0_t14_f", 
      "attrs": {"act_type": "sigmoid"}, 
      "inputs": [[226, 1, 0]]
    }, 
    {
      "op": "elemwise_mul", 
      "name": "_mul28", 
      "inputs": [[228, 0, 0], [219, 0, 0]]
    }, 
    {
      "op": "Activation", 
      "name": "encoder_birnn_forward_l0_t14_i", 
      "attrs": {"act_type": "sigmoid"}, 
      "inputs": [[226, 0, 0]]
    }, 
    {
      "op": "Activation", 
      "name": "encoder_birnn_forward_l0_t14_c", 
      "attrs": {"act_type": "tanh"}, 
      "inputs": [[226, 2, 0]]
    }, 
    {
      "op": "elemwise_mul", 
      "name": "_mul29", 
      "inputs": [[230, 0, 0], [231, 0, 0]]
    }, 
    {
      "op": "elemwise_add", 
      "name": "encoder_birnn_forward_l0_t14_state", 
      "inputs": [[229, 0, 0], [232, 0, 0]]
    }, 
    {
      "op": "Activation", 
      "name": "activation14", 
      "attrs": {"act_type": "tanh"}, 
      "inputs": [[233, 0, 0]]
    }, 
    {
      "op": "elemwise_mul", 
      "name": "encoder_birnn_forward_l0_t14_out", 
      "inputs": [[227, 0, 0], [234, 0, 0]]
    }, 
    {
      "op": "expand_dims", 
      "name": "expand_dims14", 
      "attrs": {"axis": "0"}, 
      "inputs": [[235, 0, 0]]
    }, 
    {
      "op": "FullyConnected", 
      "name": "encoder_birnn_forward_l0_t15_i2h", 
      "attrs": {"num_hidden": "2048"}, 
      "inputs": [[20, 15, 0], [21, 0, 0], [22, 0, 0]]
    }, 
    {
      "op": "FullyConnected", 
      "name": "encoder_birnn_forward_l0_t15_h2h", 
      "attrs": {"num_hidden": "2048"}, 
      "inputs": [[235, 0, 0], [25, 0, 0], [26, 0, 0]]
    }, 
    {
      "op": "elemwise_add", 
      "name": "_plus15", 
      "inputs": [[237, 0, 0], [238, 0, 0]]
    }, 
    {
      "op": "SliceChannel", 
      "name": "encoder_birnn_forward_l0_t15_slice", 
      "attrs": {"num_outputs": "4"}, 
      "inputs": [[239, 0, 0]]
    }, 
    {
      "op": "Activation", 
      "name": "encoder_birnn_forward_l0_t15_o", 
      "attrs": {"act_type": "sigmoid"}, 
      "inputs": [[240, 3, 0]]
    }, 
    {
      "op": "Activation", 
      "name": "encoder_birnn_forward_l0_t15_f", 
      "attrs": {"act_type": "sigmoid"}, 
      "inputs": [[240, 1, 0]]
    }, 
    {
      "op": "elemwise_mul", 
      "name": "_mul30", 
      "inputs": [[242, 0, 0], [233, 0, 0]]
    }, 
    {
      "op": "Activation", 
      "name": "encoder_birnn_forward_l0_t15_i", 
      "attrs": {"act_type": "sigmoid"}, 
      "inputs": [[240, 0, 0]]
    }, 
    {
      "op": "Activation", 
      "name": "encoder_birnn_forward_l0_t15_c", 
      "attrs": {"act_type": "tanh"}, 
      "inputs": [[240, 2, 0]]
    }, 
    {
      "op": "elemwise_mul", 
      "name": "_mul31", 
      "inputs": [[244, 0, 0], [245, 0, 0]]
    }, 
    {
      "op": "elemwise_add", 
      "name": "encoder_birnn_forward_l0_t15_state", 
      "inputs": [[243, 0, 0], [246, 0, 0]]
    }, 
    {
      "op": "Activation", 
      "name": "activation15", 
      "attrs": {"act_type": "tanh"}, 
      "inputs": [[247, 0, 0]]
    }, 
    {
      "op": "elemwise_mul", 
      "name": "encoder_birnn_forward_l0_t15_out", 
      "inputs": [[241, 0, 0], [248, 0, 0]]
    }, 
    {
      "op": "expand_dims", 
      "name": "expand_dims15", 
      "attrs": {"axis": "0"}, 
      "inputs": [[249, 0, 0]]
    }, 
    {
      "op": "FullyConnected", 
      "name": "encoder_birnn_forward_l0_t16_i2h", 
      "attrs": {"num_hidden": "2048"}, 
      "inputs": [[20, 16, 0], [21, 0, 0], [22, 0, 0]]
    }, 
    {
      "op": "FullyConnected", 
      "name": "encoder_birnn_forward_l0_t16_h2h", 
      "attrs": {"num_hidden": "2048"}, 
      "inputs": [[249, 0, 0], [25, 0, 0], [26, 0, 0]]
    }, 
    {
      "op": "elemwise_add", 
      "name": "_plus16", 
      "inputs": [[251, 0, 0], [252, 0, 0]]
    }, 
    {
      "op": "SliceChannel", 
      "name": "encoder_birnn_forward_l0_t16_slice", 
      "attrs": {"num_outputs": "4"}, 
      "inputs": [[253, 0, 0]]
    }, 
    {
      "op": "Activation", 
      "name": "encoder_birnn_forward_l0_t16_o", 
      "attrs": {"act_type": "sigmoid"}, 
      "inputs": [[254, 3, 0]]
    }, 
    {
      "op": "Activation", 
      "name": "encoder_birnn_forward_l0_t16_f", 
      "attrs": {"act_type": "sigmoid"}, 
      "inputs": [[254, 1, 0]]
    }, 
    {
      "op": "elemwise_mul", 
      "name": "_mul32", 
      "inputs": [[256, 0, 0], [247, 0, 0]]
    }, 
    {
      "op": "Activation", 
      "name": "encoder_birnn_forward_l0_t16_i", 
      "attrs": {"act_type": "sigmoid"}, 
      "inputs": [[254, 0, 0]]
    }, 
    {
      "op": "Activation", 
      "name": "encoder_birnn_forward_l0_t16_c", 
      "attrs": {"act_type": "tanh"}, 
      "inputs": [[254, 2, 0]]
    }, 
    {
      "op": "elemwise_mul", 
      "name": "_mul33", 
      "inputs": [[258, 0, 0], [259, 0, 0]]
    }, 
    {
      "op": "elemwise_add", 
      "name": "encoder_birnn_forward_l0_t16_state", 
      "inputs": [[257, 0, 0], [260, 0, 0]]
    }, 
    {
      "op": "Activation", 
      "name": "activation16", 
      "attrs": {"act_type": "tanh"}, 
      "inputs": [[261, 0, 0]]
    }, 
    {
      "op": "elemwise_mul", 
      "name": "encoder_birnn_forward_l0_t16_out", 
      "inputs": [[255, 0, 0], [262, 0, 0]]
    }, 
    {
      "op": "expand_dims", 
      "name": "expand_dims16", 
      "attrs": {"axis": "0"}, 
      "inputs": [[263, 0, 0]]
    }, 
    {
      "op": "FullyConnected", 
      "name": "encoder_birnn_forward_l0_t17_i2h", 
      "attrs": {"num_hidden": "2048"}, 
      "inputs": [[20, 17, 0], [21, 0, 0], [22, 0, 0]]
    }, 
    {
      "op": "FullyConnected", 
      "name": "encoder_birnn_forward_l0_t17_h2h", 
      "attrs": {"num_hidden": "2048"}, 
      "inputs": [[263, 0, 0], [25, 0, 0], [26, 0, 0]]
    }, 
    {
      "op": "elemwise_add", 
      "name": "_plus17", 
      "inputs": [[265, 0, 0], [266, 0, 0]]
    }, 
    {
      "op": "SliceChannel", 
      "name": "encoder_birnn_forward_l0_t17_slice", 
      "attrs": {"num_outputs": "4"}, 
      "inputs": [[267, 0, 0]]
    }, 
    {
      "op": "Activation", 
      "name": "encoder_birnn_forward_l0_t17_o", 
      "attrs": {"act_type": "sigmoid"}, 
      "inputs": [[268, 3, 0]]
    }, 
    {
      "op": "Activation", 
      "name": "encoder_birnn_forward_l0_t17_f", 
      "attrs": {"act_type": "sigmoid"}, 
      "inputs": [[268, 1, 0]]
    }, 
    {
      "op": "elemwise_mul", 
      "name": "_mul34", 
      "inputs": [[270, 0, 0], [261, 0, 0]]
    }, 
    {
      "op": "Activation", 
      "name": "encoder_birnn_forward_l0_t17_i", 
      "attrs": {"act_type": "sigmoid"}, 
      "inputs": [[268, 0, 0]]
    }, 
    {
      "op": "Activation", 
      "name": "encoder_birnn_forward_l0_t17_c", 
      "attrs": {"act_type": "tanh"}, 
      "inputs": [[268, 2, 0]]
    }, 
    {
      "op": "elemwise_mul", 
      "name": "_mul35", 
      "inputs": [[272, 0, 0], [273, 0, 0]]
    }, 
    {
      "op": "elemwise_add", 
      "name": "encoder_birnn_forward_l0_t17_state", 
      "inputs": [[271, 0, 0], [274, 0, 0]]
    }, 
    {
      "op": "Activation", 
      "name": "activation17", 
      "attrs": {"act_type": "tanh"}, 
      "inputs": [[275, 0, 0]]
    }, 
    {
      "op": "elemwise_mul", 
      "name": "encoder_birnn_forward_l0_t17_out", 
      "inputs": [[269, 0, 0], [276, 0, 0]]
    }, 
    {
      "op": "expand_dims", 
      "name": "expand_dims17", 
      "attrs": {"axis": "0"}, 
      "inputs": [[277, 0, 0]]
    }, 
    {
      "op": "FullyConnected", 
      "name": "encoder_birnn_forward_l0_t18_i2h", 
      "attrs": {"num_hidden": "2048"}, 
      "inputs": [[20, 18, 0], [21, 0, 0], [22, 0, 0]]
    }, 
    {
      "op": "FullyConnected", 
      "name": "encoder_birnn_forward_l0_t18_h2h", 
      "attrs": {"num_hidden": "2048"}, 
      "inputs": [[277, 0, 0], [25, 0, 0], [26, 0, 0]]
    }, 
    {
      "op": "elemwise_add", 
      "name": "_plus18", 
      "inputs": [[279, 0, 0], [280, 0, 0]]
    }, 
    {
      "op": "SliceChannel", 
      "name": "encoder_birnn_forward_l0_t18_slice", 
      "attrs": {"num_outputs": "4"}, 
      "inputs": [[281, 0, 0]]
    }, 
    {
      "op": "Activation", 
      "name": "encoder_birnn_forward_l0_t18_o", 
      "attrs": {"act_type": "sigmoid"}, 
      "inputs": [[282, 3, 0]]
    }, 
    {
      "op": "Activation", 
      "name": "encoder_birnn_forward_l0_t18_f", 
      "attrs": {"act_type": "sigmoid"}, 
      "inputs": [[282, 1, 0]]
    }, 
    {
      "op": "elemwise_mul", 
      "name": "_mul36", 
      "inputs": [[284, 0, 0], [275, 0, 0]]
    }, 
    {
      "op": "Activation", 
      "name": "encoder_birnn_forward_l0_t18_i", 
      "attrs": {"act_type": "sigmoid"}, 
      "inputs": [[282, 0, 0]]
    }, 
    {
      "op": "Activation", 
      "name": "encoder_birnn_forward_l0_t18_c", 
      "attrs": {"act_type": "tanh"}, 
      "inputs": [[282, 2, 0]]
    }, 
    {
      "op": "elemwise_mul", 
      "name": "_mul37", 
      "inputs": [[286, 0, 0], [287, 0, 0]]
    }, 
    {
      "op": "elemwise_add", 
      "name": "encoder_birnn_forward_l0_t18_state", 
      "inputs": [[285, 0, 0], [288, 0, 0]]
    }, 
    {
      "op": "Activation", 
      "name": "activation18", 
      "attrs": {"act_type": "tanh"}, 
      "inputs": [[289, 0, 0]]
    }, 
    {
      "op": "elemwise_mul", 
      "name": "encoder_birnn_forward_l0_t18_out", 
      "inputs": [[283, 0, 0], [290, 0, 0]]
    }, 
    {
      "op": "expand_dims", 
      "name": "expand_dims18", 
      "attrs": {"axis": "0"}, 
      "inputs": [[291, 0, 0]]
    }, 
    {
      "op": "FullyConnected", 
      "name": "encoder_birnn_forward_l0_t19_i2h", 
      "attrs": {"num_hidden": "2048"}, 
      "inputs": [[20, 19, 0], [21, 0, 0], [22, 0, 0]]
    }, 
    {
      "op": "FullyConnected", 
      "name": "encoder_birnn_forward_l0_t19_h2h", 
      "attrs": {"num_hidden": "2048"}, 
      "inputs": [[291, 0, 0], [25, 0, 0], [26, 0, 0]]
    }, 
    {
      "op": "elemwise_add", 
      "name": "_plus19", 
      "inputs": [[293, 0, 0], [294, 0, 0]]
    }, 
    {
      "op": "SliceChannel", 
      "name": "encoder_birnn_forward_l0_t19_slice", 
      "attrs": {"num_outputs": "4"}, 
      "inputs": [[295, 0, 0]]
    }, 
    {
      "op": "Activation", 
      "name": "encoder_birnn_forward_l0_t19_o", 
      "attrs": {"act_type": "sigmoid"}, 
      "inputs": [[296, 3, 0]]
    }, 
    {
      "op": "Activation", 
      "name": "encoder_birnn_forward_l0_t19_f", 
      "attrs": {"act_type": "sigmoid"}, 
      "inputs": [[296, 1, 0]]
    }, 
    {
      "op": "elemwise_mul", 
      "name": "_mul38", 
      "inputs": [[298, 0, 0], [289, 0, 0]]
    }, 
    {
      "op": "Activation", 
      "name": "encoder_birnn_forward_l0_t19_i", 
      "attrs": {"act_type": "sigmoid"}, 
      "inputs": [[296, 0, 0]]
    }, 
    {
      "op": "Activation", 
      "name": "encoder_birnn_forward_l0_t19_c", 
      "attrs": {"act_type": "tanh"}, 
      "inputs": [[296, 2, 0]]
    }, 
    {
      "op": "elemwise_mul", 
      "name": "_mul39", 
      "inputs": [[300, 0, 0], [301, 0, 0]]
    }, 
    {
      "op": "elemwise_add", 
      "name": "encoder_birnn_forward_l0_t19_state", 
      "inputs": [[299, 0, 0], [302, 0, 0]]
    }, 
    {
      "op": "Activation", 
      "name": "activation19", 
      "attrs": {"act_type": "tanh"}, 
      "inputs": [[303, 0, 0]]
    }, 
    {
      "op": "elemwise_mul", 
      "name": "encoder_birnn_forward_l0_t19_out", 
      "inputs": [[297, 0, 0], [304, 0, 0]]
    }, 
    {
      "op": "expand_dims", 
      "name": "expand_dims19", 
      "attrs": {"axis": "0"}, 
      "inputs": [[305, 0, 0]]
    }, 
    {
      "op": "FullyConnected", 
      "name": "encoder_birnn_forward_l0_t20_i2h", 
      "attrs": {"num_hidden": "2048"}, 
      "inputs": [[20, 20, 0], [21, 0, 0], [22, 0, 0]]
    }, 
    {
      "op": "FullyConnected", 
      "name": "encoder_birnn_forward_l0_t20_h2h", 
      "attrs": {"num_hidden": "2048"}, 
      "inputs": [[305, 0, 0], [25, 0, 0], [26, 0, 0]]
    }, 
    {
      "op": "elemwise_add", 
      "name": "_plus20", 
      "inputs": [[307, 0, 0], [308, 0, 0]]
    }, 
    {
      "op": "SliceChannel", 
      "name": "encoder_birnn_forward_l0_t20_slice", 
      "attrs": {"num_outputs": "4"}, 
      "inputs": [[309, 0, 0]]
    }, 
    {
      "op": "Activation", 
      "name": "encoder_birnn_forward_l0_t20_o", 
      "attrs": {"act_type": "sigmoid"}, 
      "inputs": [[310, 3, 0]]
    }, 
    {
      "op": "Activation", 
      "name": "encoder_birnn_forward_l0_t20_f", 
      "attrs": {"act_type": "sigmoid"}, 
      "inputs": [[310, 1, 0]]
    }, 
    {
      "op": "elemwise_mul", 
      "name": "_mul40", 
      "inputs": [[312, 0, 0], [303, 0, 0]]
    }, 
    {
      "op": "Activation", 
      "name": "encoder_birnn_forward_l0_t20_i", 
      "attrs": {"act_type": "sigmoid"}, 
      "inputs": [[310, 0, 0]]
    }, 
    {
      "op": "Activation", 
      "name": "encoder_birnn_forward_l0_t20_c", 
      "attrs": {"act_type": "tanh"}, 
      "inputs": [[310, 2, 0]]
    }, 
    {
      "op": "elemwise_mul", 
      "name": "_mul41", 
      "inputs": [[314, 0, 0], [315, 0, 0]]
    }, 
    {
      "op": "elemwise_add", 
      "name": "encoder_birnn_forward_l0_t20_state", 
      "inputs": [[313, 0, 0], [316, 0, 0]]
    }, 
    {
      "op": "Activation", 
      "name": "activation20", 
      "attrs": {"act_type": "tanh"}, 
      "inputs": [[317, 0, 0]]
    }, 
    {
      "op": "elemwise_mul", 
      "name": "encoder_birnn_forward_l0_t20_out", 
      "inputs": [[311, 0, 0], [318, 0, 0]]
    }, 
    {
      "op": "expand_dims", 
      "name": "expand_dims20", 
      "attrs": {"axis": "0"}, 
      "inputs": [[319, 0, 0]]
    }, 
    {
      "op": "FullyConnected", 
      "name": "encoder_birnn_forward_l0_t21_i2h", 
      "attrs": {"num_hidden": "2048"}, 
      "inputs": [[20, 21, 0], [21, 0, 0], [22, 0, 0]]
    }, 
    {
      "op": "FullyConnected", 
      "name": "encoder_birnn_forward_l0_t21_h2h", 
      "attrs": {"num_hidden": "2048"}, 
      "inputs": [[319, 0, 0], [25, 0, 0], [26, 0, 0]]
    }, 
    {
      "op": "elemwise_add", 
      "name": "_plus21", 
      "inputs": [[321, 0, 0], [322, 0, 0]]
    }, 
    {
      "op": "SliceChannel", 
      "name": "encoder_birnn_forward_l0_t21_slice", 
      "attrs": {"num_outputs": "4"}, 
      "inputs": [[323, 0, 0]]
    }, 
    {
      "op": "Activation", 
      "name": "encoder_birnn_forward_l0_t21_o", 
      "attrs": {"act_type": "sigmoid"}, 
      "inputs": [[324, 3, 0]]
    }, 
    {
      "op": "Activation", 
      "name": "encoder_birnn_forward_l0_t21_f", 
      "attrs": {"act_type": "sigmoid"}, 
      "inputs": [[324, 1, 0]]
    }, 
    {
      "op": "elemwise_mul", 
      "name": "_mul42", 
      "inputs": [[326, 0, 0], [317, 0, 0]]
    }, 
    {
      "op": "Activation", 
      "name": "encoder_birnn_forward_l0_t21_i", 
      "attrs": {"act_type": "sigmoid"}, 
      "inputs": [[324, 0, 0]]
    }, 
    {
      "op": "Activation", 
      "name": "encoder_birnn_forward_l0_t21_c", 
      "attrs": {"act_type": "tanh"}, 
      "inputs": [[324, 2, 0]]
    }, 
    {
      "op": "elemwise_mul", 
      "name": "_mul43", 
      "inputs": [[328, 0, 0], [329, 0, 0]]
    }, 
    {
      "op": "elemwise_add", 
      "name": "encoder_birnn_forward_l0_t21_state", 
      "inputs": [[327, 0, 0], [330, 0, 0]]
    }, 
    {
      "op": "Activation", 
      "name": "activation21", 
      "attrs": {"act_type": "tanh"}, 
      "inputs": [[331, 0, 0]]
    }, 
    {
      "op": "elemwise_mul", 
      "name": "encoder_birnn_forward_l0_t21_out", 
      "inputs": [[325, 0, 0], [332, 0, 0]]
    }, 
    {
      "op": "expand_dims", 
      "name": "expand_dims21", 
      "attrs": {"axis": "0"}, 
      "inputs": [[333, 0, 0]]
    }, 
    {
      "op": "FullyConnected", 
      "name": "encoder_birnn_forward_l0_t22_i2h", 
      "attrs": {"num_hidden": "2048"}, 
      "inputs": [[20, 22, 0], [21, 0, 0], [22, 0, 0]]
    }, 
    {
      "op": "FullyConnected", 
      "name": "encoder_birnn_forward_l0_t22_h2h", 
      "attrs": {"num_hidden": "2048"}, 
      "inputs": [[333, 0, 0], [25, 0, 0], [26, 0, 0]]
    }, 
    {
      "op": "elemwise_add", 
      "name": "_plus22", 
      "inputs": [[335, 0, 0], [336, 0, 0]]
    }, 
    {
      "op": "SliceChannel", 
      "name": "encoder_birnn_forward_l0_t22_slice", 
      "attrs": {"num_outputs": "4"}, 
      "inputs": [[337, 0, 0]]
    }, 
    {
      "op": "Activation", 
      "name": "encoder_birnn_forward_l0_t22_o", 
      "attrs": {"act_type": "sigmoid"}, 
      "inputs": [[338, 3, 0]]
    }, 
    {
      "op": "Activation", 
      "name": "encoder_birnn_forward_l0_t22_f", 
      "attrs": {"act_type": "sigmoid"}, 
      "inputs": [[338, 1, 0]]
    }, 
    {
      "op": "elemwise_mul", 
      "name": "_mul44", 
      "inputs": [[340, 0, 0], [331, 0, 0]]
    }, 
    {
      "op": "Activation", 
      "name": "encoder_birnn_forward_l0_t22_i", 
      "attrs": {"act_type": "sigmoid"}, 
      "inputs": [[338, 0, 0]]
    }, 
    {
      "op": "Activation", 
      "name": "encoder_birnn_forward_l0_t22_c", 
      "attrs": {"act_type": "tanh"}, 
      "inputs": [[338, 2, 0]]
    }, 
    {
      "op": "elemwise_mul", 
      "name": "_mul45", 
      "inputs": [[342, 0, 0], [343, 0, 0]]
    }, 
    {
      "op": "elemwise_add", 
      "name": "encoder_birnn_forward_l0_t22_state", 
      "inputs": [[341, 0, 0], [344, 0, 0]]
    }, 
    {
      "op": "Activation", 
      "name": "activation22", 
      "attrs": {"act_type": "tanh"}, 
      "inputs": [[345, 0, 0]]
    }, 
    {
      "op": "elemwise_mul", 
      "name": "encoder_birnn_forward_l0_t22_out", 
      "inputs": [[339, 0, 0], [346, 0, 0]]
    }, 
    {
      "op": "expand_dims", 
      "name": "expand_dims22", 
      "attrs": {"axis": "0"}, 
      "inputs": [[347, 0, 0]]
    }, 
    {
      "op": "FullyConnected", 
      "name": "encoder_birnn_forward_l0_t23_i2h", 
      "attrs": {"num_hidden": "2048"}, 
      "inputs": [[20, 23, 0], [21, 0, 0], [22, 0, 0]]
    }, 
    {
      "op": "FullyConnected", 
      "name": "encoder_birnn_forward_l0_t23_h2h", 
      "attrs": {"num_hidden": "2048"}, 
      "inputs": [[347, 0, 0], [25, 0, 0], [26, 0, 0]]
    }, 
    {
      "op": "elemwise_add", 
      "name": "_plus23", 
      "inputs": [[349, 0, 0], [350, 0, 0]]
    }, 
    {
      "op": "SliceChannel", 
      "name": "encoder_birnn_forward_l0_t23_slice", 
      "attrs": {"num_outputs": "4"}, 
      "inputs": [[351, 0, 0]]
    }, 
    {
      "op": "Activation", 
      "name": "encoder_birnn_forward_l0_t23_o", 
      "attrs": {"act_type": "sigmoid"}, 
      "inputs": [[352, 3, 0]]
    }, 
    {
      "op": "Activation", 
      "name": "encoder_birnn_forward_l0_t23_f", 
      "attrs": {"act_type": "sigmoid"}, 
      "inputs": [[352, 1, 0]]
    }, 
    {
      "op": "elemwise_mul", 
      "name": "_mul46", 
      "inputs": [[354, 0, 0], [345, 0, 0]]
    }, 
    {
      "op": "Activation", 
      "name": "encoder_birnn_forward_l0_t23_i", 
      "attrs": {"act_type": "sigmoid"}, 
      "inputs": [[352, 0, 0]]
    }, 
    {
      "op": "Activation", 
      "name": "encoder_birnn_forward_l0_t23_c", 
      "attrs": {"act_type": "tanh"}, 
      "inputs": [[352, 2, 0]]
    }, 
    {
      "op": "elemwise_mul", 
      "name": "_mul47", 
      "inputs": [[356, 0, 0], [357, 0, 0]]
    }, 
    {
      "op": "elemwise_add", 
      "name": "encoder_birnn_forward_l0_t23_state", 
      "inputs": [[355, 0, 0], [358, 0, 0]]
    }, 
    {
      "op": "Activation", 
      "name": "activation23", 
      "attrs": {"act_type": "tanh"}, 
      "inputs": [[359, 0, 0]]
    }, 
    {
      "op": "elemwise_mul", 
      "name": "encoder_birnn_forward_l0_t23_out", 
      "inputs": [[353, 0, 0], [360, 0, 0]]
    }, 
    {
      "op": "expand_dims", 
      "name": "expand_dims23", 
      "attrs": {"axis": "0"}, 
      "inputs": [[361, 0, 0]]
    }, 
    {
      "op": "FullyConnected", 
      "name": "encoder_birnn_forward_l0_t24_i2h", 
      "attrs": {"num_hidden": "2048"}, 
      "inputs": [[20, 24, 0], [21, 0, 0], [22, 0, 0]]
    }, 
    {
      "op": "FullyConnected", 
      "name": "encoder_birnn_forward_l0_t24_h2h", 
      "attrs": {"num_hidden": "2048"}, 
      "inputs": [[361, 0, 0], [25, 0, 0], [26, 0, 0]]
    }, 
    {
      "op": "elemwise_add", 
      "name": "_plus24", 
      "inputs": [[363, 0, 0], [364, 0, 0]]
    }, 
    {
      "op": "SliceChannel", 
      "name": "encoder_birnn_forward_l0_t24_slice", 
      "attrs": {"num_outputs": "4"}, 
      "inputs": [[365, 0, 0]]
    }, 
    {
      "op": "Activation", 
      "name": "encoder_birnn_forward_l0_t24_o", 
      "attrs": {"act_type": "sigmoid"}, 
      "inputs": [[366, 3, 0]]
    }, 
    {
      "op": "Activation", 
      "name": "encoder_birnn_forward_l0_t24_f", 
      "attrs": {"act_type": "sigmoid"}, 
      "inputs": [[366, 1, 0]]
    }, 
    {
      "op": "elemwise_mul", 
      "name": "_mul48", 
      "inputs": [[368, 0, 0], [359, 0, 0]]
    }, 
    {
      "op": "Activation", 
      "name": "encoder_birnn_forward_l0_t24_i", 
      "attrs": {"act_type": "sigmoid"}, 
      "inputs": [[366, 0, 0]]
    }, 
    {
      "op": "Activation", 
      "name": "encoder_birnn_forward_l0_t24_c", 
      "attrs": {"act_type": "tanh"}, 
      "inputs": [[366, 2, 0]]
    }, 
    {
      "op": "elemwise_mul", 
      "name": "_mul49", 
      "inputs": [[370, 0, 0], [371, 0, 0]]
    }, 
    {
      "op": "elemwise_add", 
      "name": "encoder_birnn_forward_l0_t24_state", 
      "inputs": [[369, 0, 0], [372, 0, 0]]
    }, 
    {
      "op": "Activation", 
      "name": "activation24", 
      "attrs": {"act_type": "tanh"}, 
      "inputs": [[373, 0, 0]]
    }, 
    {
      "op": "elemwise_mul", 
      "name": "encoder_birnn_forward_l0_t24_out", 
      "inputs": [[367, 0, 0], [374, 0, 0]]
    }, 
    {
      "op": "expand_dims", 
      "name": "expand_dims24", 
      "attrs": {"axis": "0"}, 
      "inputs": [[375, 0, 0]]
    }, 
    {
      "op": "FullyConnected", 
      "name": "encoder_birnn_forward_l0_t25_i2h", 
      "attrs": {"num_hidden": "2048"}, 
      "inputs": [[20, 25, 0], [21, 0, 0], [22, 0, 0]]
    }, 
    {
      "op": "FullyConnected", 
      "name": "encoder_birnn_forward_l0_t25_h2h", 
      "attrs": {"num_hidden": "2048"}, 
      "inputs": [[375, 0, 0], [25, 0, 0], [26, 0, 0]]
    }, 
    {
      "op": "elemwise_add", 
      "name": "_plus25", 
      "inputs": [[377, 0, 0], [378, 0, 0]]
    }, 
    {
      "op": "SliceChannel", 
      "name": "encoder_birnn_forward_l0_t25_slice", 
      "attrs": {"num_outputs": "4"}, 
      "inputs": [[379, 0, 0]]
    }, 
    {
      "op": "Activation", 
      "name": "encoder_birnn_forward_l0_t25_o", 
      "attrs": {"act_type": "sigmoid"}, 
      "inputs": [[380, 3, 0]]
    }, 
    {
      "op": "Activation", 
      "name": "encoder_birnn_forward_l0_t25_f", 
      "attrs": {"act_type": "sigmoid"}, 
      "inputs": [[380, 1, 0]]
    }, 
    {
      "op": "elemwise_mul", 
      "name": "_mul50", 
      "inputs": [[382, 0, 0], [373, 0, 0]]
    }, 
    {
      "op": "Activation", 
      "name": "encoder_birnn_forward_l0_t25_i", 
      "attrs": {"act_type": "sigmoid"}, 
      "inputs": [[380, 0, 0]]
    }, 
    {
      "op": "Activation", 
      "name": "encoder_birnn_forward_l0_t25_c", 
      "attrs": {"act_type": "tanh"}, 
      "inputs": [[380, 2, 0]]
    }, 
    {
      "op": "elemwise_mul", 
      "name": "_mul51", 
      "inputs": [[384, 0, 0], [385, 0, 0]]
    }, 
    {
      "op": "elemwise_add", 
      "name": "encoder_birnn_forward_l0_t25_state", 
      "inputs": [[383, 0, 0], [386, 0, 0]]
    }, 
    {
      "op": "Activation", 
      "name": "activation25", 
      "attrs": {"act_type": "tanh"}, 
      "inputs": [[387, 0, 0]]
    }, 
    {
      "op": "elemwise_mul", 
      "name": "encoder_birnn_forward_l0_t25_out", 
      "inputs": [[381, 0, 0], [388, 0, 0]]
    }, 
    {
      "op": "expand_dims", 
      "name": "expand_dims25", 
      "attrs": {"axis": "0"}, 
      "inputs": [[389, 0, 0]]
    }, 
    {
      "op": "FullyConnected", 
      "name": "encoder_birnn_forward_l0_t26_i2h", 
      "attrs": {"num_hidden": "2048"}, 
      "inputs": [[20, 26, 0], [21, 0, 0], [22, 0, 0]]
    }, 
    {
      "op": "FullyConnected", 
      "name": "encoder_birnn_forward_l0_t26_h2h", 
      "attrs": {"num_hidden": "2048"}, 
      "inputs": [[389, 0, 0], [25, 0, 0], [26, 0, 0]]
    }, 
    {
      "op": "elemwise_add", 
      "name": "_plus26", 
      "inputs": [[391, 0, 0], [392, 0, 0]]
    }, 
    {
      "op": "SliceChannel", 
      "name": "encoder_birnn_forward_l0_t26_slice", 
      "attrs": {"num_outputs": "4"}, 
      "inputs": [[393, 0, 0]]
    }, 
    {
      "op": "Activation", 
      "name": "encoder_birnn_forward_l0_t26_o", 
      "attrs": {"act_type": "sigmoid"}, 
      "inputs": [[394, 3, 0]]
    }, 
    {
      "op": "Activation", 
      "name": "encoder_birnn_forward_l0_t26_f", 
      "attrs": {"act_type": "sigmoid"}, 
      "inputs": [[394, 1, 0]]
    }, 
    {
      "op": "elemwise_mul", 
      "name": "_mul52", 
      "inputs": [[396, 0, 0], [387, 0, 0]]
    }, 
    {
      "op": "Activation", 
      "name": "encoder_birnn_forward_l0_t26_i", 
      "attrs": {"act_type": "sigmoid"}, 
      "inputs": [[394, 0, 0]]
    }, 
    {
      "op": "Activation", 
      "name": "encoder_birnn_forward_l0_t26_c", 
      "attrs": {"act_type": "tanh"}, 
      "inputs": [[394, 2, 0]]
    }, 
    {
      "op": "elemwise_mul", 
      "name": "_mul53", 
      "inputs": [[398, 0, 0], [399, 0, 0]]
    }, 
    {
      "op": "elemwise_add", 
      "name": "encoder_birnn_forward_l0_t26_state", 
      "inputs": [[397, 0, 0], [400, 0, 0]]
    }, 
    {
      "op": "Activation", 
      "name": "activation26", 
      "attrs": {"act_type": "tanh"}, 
      "inputs": [[401, 0, 0]]
    }, 
    {
      "op": "elemwise_mul", 
      "name": "encoder_birnn_forward_l0_t26_out", 
      "inputs": [[395, 0, 0], [402, 0, 0]]
    }, 
    {
      "op": "expand_dims", 
      "name": "expand_dims26", 
      "attrs": {"axis": "0"}, 
      "inputs": [[403, 0, 0]]
    }, 
    {
      "op": "FullyConnected", 
      "name": "encoder_birnn_forward_l0_t27_i2h", 
      "attrs": {"num_hidden": "2048"}, 
      "inputs": [[20, 27, 0], [21, 0, 0], [22, 0, 0]]
    }, 
    {
      "op": "FullyConnected", 
      "name": "encoder_birnn_forward_l0_t27_h2h", 
      "attrs": {"num_hidden": "2048"}, 
      "inputs": [[403, 0, 0], [25, 0, 0], [26, 0, 0]]
    }, 
    {
      "op": "elemwise_add", 
      "name": "_plus27", 
      "inputs": [[405, 0, 0], [406, 0, 0]]
    }, 
    {
      "op": "SliceChannel", 
      "name": "encoder_birnn_forward_l0_t27_slice", 
      "attrs": {"num_outputs": "4"}, 
      "inputs": [[407, 0, 0]]
    }, 
    {
      "op": "Activation", 
      "name": "encoder_birnn_forward_l0_t27_o", 
      "attrs": {"act_type": "sigmoid"}, 
      "inputs": [[408, 3, 0]]
    }, 
    {
      "op": "Activation", 
      "name": "encoder_birnn_forward_l0_t27_f", 
      "attrs": {"act_type": "sigmoid"}, 
      "inputs": [[408, 1, 0]]
    }, 
    {
      "op": "elemwise_mul", 
      "name": "_mul54", 
      "inputs": [[410, 0, 0], [401, 0, 0]]
    }, 
    {
      "op": "Activation", 
      "name": "encoder_birnn_forward_l0_t27_i", 
      "attrs": {"act_type": "sigmoid"}, 
      "inputs": [[408, 0, 0]]
    }, 
    {
      "op": "Activation", 
      "name": "encoder_birnn_forward_l0_t27_c", 
      "attrs": {"act_type": "tanh"}, 
      "inputs": [[408, 2, 0]]
    }, 
    {
      "op": "elemwise_mul", 
      "name": "_mul55", 
      "inputs": [[412, 0, 0], [413, 0, 0]]
    }, 
    {
      "op": "elemwise_add", 
      "name": "encoder_birnn_forward_l0_t27_state", 
      "inputs": [[411, 0, 0], [414, 0, 0]]
    }, 
    {
      "op": "Activation", 
      "name": "activation27", 
      "attrs": {"act_type": "tanh"}, 
      "inputs": [[415, 0, 0]]
    }, 
    {
      "op": "elemwise_mul", 
      "name": "encoder_birnn_forward_l0_t27_out", 
      "inputs": [[409, 0, 0], [416, 0, 0]]
    }, 
    {
      "op": "expand_dims", 
      "name": "expand_dims27", 
      "attrs": {"axis": "0"}, 
      "inputs": [[417, 0, 0]]
    }, 
    {
      "op": "FullyConnected", 
      "name": "encoder_birnn_forward_l0_t28_i2h", 
      "attrs": {"num_hidden": "2048"}, 
      "inputs": [[20, 28, 0], [21, 0, 0], [22, 0, 0]]
    }, 
    {
      "op": "FullyConnected", 
      "name": "encoder_birnn_forward_l0_t28_h2h", 
      "attrs": {"num_hidden": "2048"}, 
      "inputs": [[417, 0, 0], [25, 0, 0], [26, 0, 0]]
    }, 
    {
      "op": "elemwise_add", 
      "name": "_plus28", 
      "inputs": [[419, 0, 0], [420, 0, 0]]
    }, 
    {
      "op": "SliceChannel", 
      "name": "encoder_birnn_forward_l0_t28_slice", 
      "attrs": {"num_outputs": "4"}, 
      "inputs": [[421, 0, 0]]
    }, 
    {
      "op": "Activation", 
      "name": "encoder_birnn_forward_l0_t28_o", 
      "attrs": {"act_type": "sigmoid"}, 
      "inputs": [[422, 3, 0]]
    }, 
    {
      "op": "Activation", 
      "name": "encoder_birnn_forward_l0_t28_f", 
      "attrs": {"act_type": "sigmoid"}, 
      "inputs": [[422, 1, 0]]
    }, 
    {
      "op": "elemwise_mul", 
      "name": "_mul56", 
      "inputs": [[424, 0, 0], [415, 0, 0]]
    }, 
    {
      "op": "Activation", 
      "name": "encoder_birnn_forward_l0_t28_i", 
      "attrs": {"act_type": "sigmoid"}, 
      "inputs": [[422, 0, 0]]
    }, 
    {
      "op": "Activation", 
      "name": "encoder_birnn_forward_l0_t28_c", 
      "attrs": {"act_type": "tanh"}, 
      "inputs": [[422, 2, 0]]
    }, 
    {
      "op": "elemwise_mul", 
      "name": "_mul57", 
      "inputs": [[426, 0, 0], [427, 0, 0]]
    }, 
    {
      "op": "elemwise_add", 
      "name": "encoder_birnn_forward_l0_t28_state", 
      "inputs": [[425, 0, 0], [428, 0, 0]]
    }, 
    {
      "op": "Activation", 
      "name": "activation28", 
      "attrs": {"act_type": "tanh"}, 
      "inputs": [[429, 0, 0]]
    }, 
    {
      "op": "elemwise_mul", 
      "name": "encoder_birnn_forward_l0_t28_out", 
      "inputs": [[423, 0, 0], [430, 0, 0]]
    }, 
    {
      "op": "expand_dims", 
      "name": "expand_dims28", 
      "attrs": {"axis": "0"}, 
      "inputs": [[431, 0, 0]]
    }, 
    {
      "op": "FullyConnected", 
      "name": "encoder_birnn_forward_l0_t29_i2h", 
      "attrs": {"num_hidden": "2048"}, 
      "inputs": [[20, 29, 0], [21, 0, 0], [22, 0, 0]]
    }, 
    {
      "op": "FullyConnected", 
      "name": "encoder_birnn_forward_l0_t29_h2h", 
      "attrs": {"num_hidden": "2048"}, 
      "inputs": [[431, 0, 0], [25, 0, 0], [26, 0, 0]]
    }, 
    {
      "op": "elemwise_add", 
      "name": "_plus29", 
      "inputs": [[433, 0, 0], [434, 0, 0]]
    }, 
    {
      "op": "SliceChannel", 
      "name": "encoder_birnn_forward_l0_t29_slice", 
      "attrs": {"num_outputs": "4"}, 
      "inputs": [[435, 0, 0]]
    }, 
    {
      "op": "Activation", 
      "name": "encoder_birnn_forward_l0_t29_o", 
      "attrs": {"act_type": "sigmoid"}, 
      "inputs": [[436, 3, 0]]
    }, 
    {
      "op": "Activation", 
      "name": "encoder_birnn_forward_l0_t29_f", 
      "attrs": {"act_type": "sigmoid"}, 
      "inputs": [[436, 1, 0]]
    }, 
    {
      "op": "elemwise_mul", 
      "name": "_mul58", 
      "inputs": [[438, 0, 0], [429, 0, 0]]
    }, 
    {
      "op": "Activation", 
      "name": "encoder_birnn_forward_l0_t29_i", 
      "attrs": {"act_type": "sigmoid"}, 
      "inputs": [[436, 0, 0]]
    }, 
    {
      "op": "Activation", 
      "name": "encoder_birnn_forward_l0_t29_c", 
      "attrs": {"act_type": "tanh"}, 
      "inputs": [[436, 2, 0]]
    }, 
    {
      "op": "elemwise_mul", 
      "name": "_mul59", 
      "inputs": [[440, 0, 0], [441, 0, 0]]
    }, 
    {
      "op": "elemwise_add", 
      "name": "encoder_birnn_forward_l0_t29_state", 
      "inputs": [[439, 0, 0], [442, 0, 0]]
    }, 
    {
      "op": "Activation", 
      "name": "activation29", 
      "attrs": {"act_type": "tanh"}, 
      "inputs": [[443, 0, 0]]
    }, 
    {
      "op": "elemwise_mul", 
      "name": "encoder_birnn_forward_l0_t29_out", 
      "inputs": [[437, 0, 0], [444, 0, 0]]
    }, 
    {
      "op": "expand_dims", 
      "name": "expand_dims29", 
      "attrs": {"axis": "0"}, 
      "inputs": [[445, 0, 0]]
    }, 
    {
      "op": "FullyConnected", 
      "name": "encoder_birnn_forward_l0_t30_i2h", 
      "attrs": {"num_hidden": "2048"}, 
      "inputs": [[20, 30, 0], [21, 0, 0], [22, 0, 0]]
    }, 
    {
      "op": "FullyConnected", 
      "name": "encoder_birnn_forward_l0_t30_h2h", 
      "attrs": {"num_hidden": "2048"}, 
      "inputs": [[445, 0, 0], [25, 0, 0], [26, 0, 0]]
    }, 
    {
      "op": "elemwise_add", 
      "name": "_plus30", 
      "inputs": [[447, 0, 0], [448, 0, 0]]
    }, 
    {
      "op": "SliceChannel", 
      "name": "encoder_birnn_forward_l0_t30_slice", 
      "attrs": {"num_outputs": "4"}, 
      "inputs": [[449, 0, 0]]
    }, 
    {
      "op": "Activation", 
      "name": "encoder_birnn_forward_l0_t30_o", 
      "attrs": {"act_type": "sigmoid"}, 
      "inputs": [[450, 3, 0]]
    }, 
    {
      "op": "Activation", 
      "name": "encoder_birnn_forward_l0_t30_f", 
      "attrs": {"act_type": "sigmoid"}, 
      "inputs": [[450, 1, 0]]
    }, 
    {
      "op": "elemwise_mul", 
      "name": "_mul60", 
      "inputs": [[452, 0, 0], [443, 0, 0]]
    }, 
    {
      "op": "Activation", 
      "name": "encoder_birnn_forward_l0_t30_i", 
      "attrs": {"act_type": "sigmoid"}, 
      "inputs": [[450, 0, 0]]
    }, 
    {
      "op": "Activation", 
      "name": "encoder_birnn_forward_l0_t30_c", 
      "attrs": {"act_type": "tanh"}, 
      "inputs": [[450, 2, 0]]
    }, 
    {
      "op": "elemwise_mul", 
      "name": "_mul61", 
      "inputs": [[454, 0, 0], [455, 0, 0]]
    }, 
    {
      "op": "elemwise_add", 
      "name": "encoder_birnn_forward_l0_t30_state", 
      "inputs": [[453, 0, 0], [456, 0, 0]]
    }, 
    {
      "op": "Activation", 
      "name": "activation30", 
      "attrs": {"act_type": "tanh"}, 
      "inputs": [[457, 0, 0]]
    }, 
    {
      "op": "elemwise_mul", 
      "name": "encoder_birnn_forward_l0_t30_out", 
      "inputs": [[451, 0, 0], [458, 0, 0]]
    }, 
    {
      "op": "expand_dims", 
      "name": "expand_dims30", 
      "attrs": {"axis": "0"}, 
      "inputs": [[459, 0, 0]]
    }, 
    {
      "op": "FullyConnected", 
      "name": "encoder_birnn_forward_l0_t31_i2h", 
      "attrs": {"num_hidden": "2048"}, 
      "inputs": [[20, 31, 0], [21, 0, 0], [22, 0, 0]]
    }, 
    {
      "op": "FullyConnected", 
      "name": "encoder_birnn_forward_l0_t31_h2h", 
      "attrs": {"num_hidden": "2048"}, 
      "inputs": [[459, 0, 0], [25, 0, 0], [26, 0, 0]]
    }, 
    {
      "op": "elemwise_add", 
      "name": "_plus31", 
      "inputs": [[461, 0, 0], [462, 0, 0]]
    }, 
    {
      "op": "SliceChannel", 
      "name": "encoder_birnn_forward_l0_t31_slice", 
      "attrs": {"num_outputs": "4"}, 
      "inputs": [[463, 0, 0]]
    }, 
    {
      "op": "Activation", 
      "name": "encoder_birnn_forward_l0_t31_o", 
      "attrs": {"act_type": "sigmoid"}, 
      "inputs": [[464, 3, 0]]
    }, 
    {
      "op": "Activation", 
      "name": "encoder_birnn_forward_l0_t31_f", 
      "attrs": {"act_type": "sigmoid"}, 
      "inputs": [[464, 1, 0]]
    }, 
    {
      "op": "elemwise_mul", 
      "name": "_mul62", 
      "inputs": [[466, 0, 0], [457, 0, 0]]
    }, 
    {
      "op": "Activation", 
      "name": "encoder_birnn_forward_l0_t31_i", 
      "attrs": {"act_type": "sigmoid"}, 
      "inputs": [[464, 0, 0]]
    }, 
    {
      "op": "Activation", 
      "name": "encoder_birnn_forward_l0_t31_c", 
      "attrs": {"act_type": "tanh"}, 
      "inputs": [[464, 2, 0]]
    }, 
    {
      "op": "elemwise_mul", 
      "name": "_mul63", 
      "inputs": [[468, 0, 0], [469, 0, 0]]
    }, 
    {
      "op": "elemwise_add", 
      "name": "encoder_birnn_forward_l0_t31_state", 
      "inputs": [[467, 0, 0], [470, 0, 0]]
    }, 
    {
      "op": "Activation", 
      "name": "activation31", 
      "attrs": {"act_type": "tanh"}, 
      "inputs": [[471, 0, 0]]
    }, 
    {
      "op": "elemwise_mul", 
      "name": "encoder_birnn_forward_l0_t31_out", 
      "inputs": [[465, 0, 0], [472, 0, 0]]
    }, 
    {
      "op": "expand_dims", 
      "name": "expand_dims31", 
      "attrs": {"axis": "0"}, 
      "inputs": [[473, 0, 0]]
    }, 
    {
      "op": "FullyConnected", 
      "name": "encoder_birnn_forward_l0_t32_i2h", 
      "attrs": {"num_hidden": "2048"}, 
      "inputs": [[20, 32, 0], [21, 0, 0], [22, 0, 0]]
    }, 
    {
      "op": "FullyConnected", 
      "name": "encoder_birnn_forward_l0_t32_h2h", 
      "attrs": {"num_hidden": "2048"}, 
      "inputs": [[473, 0, 0], [25, 0, 0], [26, 0, 0]]
    }, 
    {
      "op": "elemwise_add", 
      "name": "_plus32", 
      "inputs": [[475, 0, 0], [476, 0, 0]]
    }, 
    {
      "op": "SliceChannel", 
      "name": "encoder_birnn_forward_l0_t32_slice", 
      "attrs": {"num_outputs": "4"}, 
      "inputs": [[477, 0, 0]]
    }, 
    {
      "op": "Activation", 
      "name": "encoder_birnn_forward_l0_t32_o", 
      "attrs": {"act_type": "sigmoid"}, 
      "inputs": [[478, 3, 0]]
    }, 
    {
      "op": "Activation", 
      "name": "encoder_birnn_forward_l0_t32_f", 
      "attrs": {"act_type": "sigmoid"}, 
      "inputs": [[478, 1, 0]]
    }, 
    {
      "op": "elemwise_mul", 
      "name": "_mul64", 
      "inputs": [[480, 0, 0], [471, 0, 0]]
    }, 
    {
      "op": "Activation", 
      "name": "encoder_birnn_forward_l0_t32_i", 
      "attrs": {"act_type": "sigmoid"}, 
      "inputs": [[478, 0, 0]]
    }, 
    {
      "op": "Activation", 
      "name": "encoder_birnn_forward_l0_t32_c", 
      "attrs": {"act_type": "tanh"}, 
      "inputs": [[478, 2, 0]]
    }, 
    {
      "op": "elemwise_mul", 
      "name": "_mul65", 
      "inputs": [[482, 0, 0], [483, 0, 0]]
    }, 
    {
      "op": "elemwise_add", 
      "name": "encoder_birnn_forward_l0_t32_state", 
      "inputs": [[481, 0, 0], [484, 0, 0]]
    }, 
    {
      "op": "Activation", 
      "name": "activation32", 
      "attrs": {"act_type": "tanh"}, 
      "inputs": [[485, 0, 0]]
    }, 
    {
      "op": "elemwise_mul", 
      "name": "encoder_birnn_forward_l0_t32_out", 
      "inputs": [[479, 0, 0], [486, 0, 0]]
    }, 
    {
      "op": "expand_dims", 
      "name": "expand_dims32", 
      "attrs": {"axis": "0"}, 
      "inputs": [[487, 0, 0]]
    }, 
    {
      "op": "FullyConnected", 
      "name": "encoder_birnn_forward_l0_t33_i2h", 
      "attrs": {"num_hidden": "2048"}, 
      "inputs": [[20, 33, 0], [21, 0, 0], [22, 0, 0]]
    }, 
    {
      "op": "FullyConnected", 
      "name": "encoder_birnn_forward_l0_t33_h2h", 
      "attrs": {"num_hidden": "2048"}, 
      "inputs": [[487, 0, 0], [25, 0, 0], [26, 0, 0]]
    }, 
    {
      "op": "elemwise_add", 
      "name": "_plus33", 
      "inputs": [[489, 0, 0], [490, 0, 0]]
    }, 
    {
      "op": "SliceChannel", 
      "name": "encoder_birnn_forward_l0_t33_slice", 
      "attrs": {"num_outputs": "4"}, 
      "inputs": [[491, 0, 0]]
    }, 
    {
      "op": "Activation", 
      "name": "encoder_birnn_forward_l0_t33_o", 
      "attrs": {"act_type": "sigmoid"}, 
      "inputs": [[492, 3, 0]]
    }, 
    {
      "op": "Activation", 
      "name": "encoder_birnn_forward_l0_t33_f", 
      "attrs": {"act_type": "sigmoid"}, 
      "inputs": [[492, 1, 0]]
    }, 
    {
      "op": "elemwise_mul", 
      "name": "_mul66", 
      "inputs": [[494, 0, 0], [485, 0, 0]]
    }, 
    {
      "op": "Activation", 
      "name": "encoder_birnn_forward_l0_t33_i", 
      "attrs": {"act_type": "sigmoid"}, 
      "inputs": [[492, 0, 0]]
    }, 
    {
      "op": "Activation", 
      "name": "encoder_birnn_forward_l0_t33_c", 
      "attrs": {"act_type": "tanh"}, 
      "inputs": [[492, 2, 0]]
    }, 
    {
      "op": "elemwise_mul", 
      "name": "_mul67", 
      "inputs": [[496, 0, 0], [497, 0, 0]]
    }, 
    {
      "op": "elemwise_add", 
      "name": "encoder_birnn_forward_l0_t33_state", 
      "inputs": [[495, 0, 0], [498, 0, 0]]
    }, 
    {
      "op": "Activation", 
      "name": "activation33", 
      "attrs": {"act_type": "tanh"}, 
      "inputs": [[499, 0, 0]]
    }, 
    {
      "op": "elemwise_mul", 
      "name": "encoder_birnn_forward_l0_t33_out", 
      "inputs": [[493, 0, 0], [500, 0, 0]]
    }, 
    {
      "op": "expand_dims", 
      "name": "expand_dims33", 
      "attrs": {"axis": "0"}, 
      "inputs": [[501, 0, 0]]
    }, 
    {
      "op": "FullyConnected", 
      "name": "encoder_birnn_forward_l0_t34_i2h", 
      "attrs": {"num_hidden": "2048"}, 
      "inputs": [[20, 34, 0], [21, 0, 0], [22, 0, 0]]
    }, 
    {
      "op": "FullyConnected", 
      "name": "encoder_birnn_forward_l0_t34_h2h", 
      "attrs": {"num_hidden": "2048"}, 
      "inputs": [[501, 0, 0], [25, 0, 0], [26, 0, 0]]
    }, 
    {
      "op": "elemwise_add", 
      "name": "_plus34", 
      "inputs": [[503, 0, 0], [504, 0, 0]]
    }, 
    {
      "op": "SliceChannel", 
      "name": "encoder_birnn_forward_l0_t34_slice", 
      "attrs": {"num_outputs": "4"}, 
      "inputs": [[505, 0, 0]]
    }, 
    {
      "op": "Activation", 
      "name": "encoder_birnn_forward_l0_t34_o", 
      "attrs": {"act_type": "sigmoid"}, 
      "inputs": [[506, 3, 0]]
    }, 
    {
      "op": "Activation", 
      "name": "encoder_birnn_forward_l0_t34_f", 
      "attrs": {"act_type": "sigmoid"}, 
      "inputs": [[506, 1, 0]]
    }, 
    {
      "op": "elemwise_mul", 
      "name": "_mul68", 
      "inputs": [[508, 0, 0], [499, 0, 0]]
    }, 
    {
      "op": "Activation", 
      "name": "encoder_birnn_forward_l0_t34_i", 
      "attrs": {"act_type": "sigmoid"}, 
      "inputs": [[506, 0, 0]]
    }, 
    {
      "op": "Activation", 
      "name": "encoder_birnn_forward_l0_t34_c", 
      "attrs": {"act_type": "tanh"}, 
      "inputs": [[506, 2, 0]]
    }, 
    {
      "op": "elemwise_mul", 
      "name": "_mul69", 
      "inputs": [[510, 0, 0], [511, 0, 0]]
    }, 
    {
      "op": "elemwise_add", 
      "name": "encoder_birnn_forward_l0_t34_state", 
      "inputs": [[509, 0, 0], [512, 0, 0]]
    }, 
    {
      "op": "Activation", 
      "name": "activation34", 
      "attrs": {"act_type": "tanh"}, 
      "inputs": [[513, 0, 0]]
    }, 
    {
      "op": "elemwise_mul", 
      "name": "encoder_birnn_forward_l0_t34_out", 
      "inputs": [[507, 0, 0], [514, 0, 0]]
    }, 
    {
      "op": "expand_dims", 
      "name": "expand_dims34", 
      "attrs": {"axis": "0"}, 
      "inputs": [[515, 0, 0]]
    }, 
    {
      "op": "FullyConnected", 
      "name": "encoder_birnn_forward_l0_t35_i2h", 
      "attrs": {"num_hidden": "2048"}, 
      "inputs": [[20, 35, 0], [21, 0, 0], [22, 0, 0]]
    }, 
    {
      "op": "FullyConnected", 
      "name": "encoder_birnn_forward_l0_t35_h2h", 
      "attrs": {"num_hidden": "2048"}, 
      "inputs": [[515, 0, 0], [25, 0, 0], [26, 0, 0]]
    }, 
    {
      "op": "elemwise_add", 
      "name": "_plus35", 
      "inputs": [[517, 0, 0], [518, 0, 0]]
    }, 
    {
      "op": "SliceChannel", 
      "name": "encoder_birnn_forward_l0_t35_slice", 
      "attrs": {"num_outputs": "4"}, 
      "inputs": [[519, 0, 0]]
    }, 
    {
      "op": "Activation", 
      "name": "encoder_birnn_forward_l0_t35_o", 
      "attrs": {"act_type": "sigmoid"}, 
      "inputs": [[520, 3, 0]]
    }, 
    {
      "op": "Activation", 
      "name": "encoder_birnn_forward_l0_t35_f", 
      "attrs": {"act_type": "sigmoid"}, 
      "inputs": [[520, 1, 0]]
    }, 
    {
      "op": "elemwise_mul", 
      "name": "_mul70", 
      "inputs": [[522, 0, 0], [513, 0, 0]]
    }, 
    {
      "op": "Activation", 
      "name": "encoder_birnn_forward_l0_t35_i", 
      "attrs": {"act_type": "sigmoid"}, 
      "inputs": [[520, 0, 0]]
    }, 
    {
      "op": "Activation", 
      "name": "encoder_birnn_forward_l0_t35_c", 
      "attrs": {"act_type": "tanh"}, 
      "inputs": [[520, 2, 0]]
    }, 
    {
      "op": "elemwise_mul", 
      "name": "_mul71", 
      "inputs": [[524, 0, 0], [525, 0, 0]]
    }, 
    {
      "op": "elemwise_add", 
      "name": "encoder_birnn_forward_l0_t35_state", 
      "inputs": [[523, 0, 0], [526, 0, 0]]
    }, 
    {
      "op": "Activation", 
      "name": "activation35", 
      "attrs": {"act_type": "tanh"}, 
      "inputs": [[527, 0, 0]]
    }, 
    {
      "op": "elemwise_mul", 
      "name": "encoder_birnn_forward_l0_t35_out", 
      "inputs": [[521, 0, 0], [528, 0, 0]]
    }, 
    {
      "op": "expand_dims", 
      "name": "expand_dims35", 
      "attrs": {"axis": "0"}, 
      "inputs": [[529, 0, 0]]
    }, 
    {
      "op": "FullyConnected", 
      "name": "encoder_birnn_forward_l0_t36_i2h", 
      "attrs": {"num_hidden": "2048"}, 
      "inputs": [[20, 36, 0], [21, 0, 0], [22, 0, 0]]
    }, 
    {
      "op": "FullyConnected", 
      "name": "encoder_birnn_forward_l0_t36_h2h", 
      "attrs": {"num_hidden": "2048"}, 
      "inputs": [[529, 0, 0], [25, 0, 0], [26, 0, 0]]
    }, 
    {
      "op": "elemwise_add", 
      "name": "_plus36", 
      "inputs": [[531, 0, 0], [532, 0, 0]]
    }, 
    {
      "op": "SliceChannel", 
      "name": "encoder_birnn_forward_l0_t36_slice", 
      "attrs": {"num_outputs": "4"}, 
      "inputs": [[533, 0, 0]]
    }, 
    {
      "op": "Activation", 
      "name": "encoder_birnn_forward_l0_t36_o", 
      "attrs": {"act_type": "sigmoid"}, 
      "inputs": [[534, 3, 0]]
    }, 
    {
      "op": "Activation", 
      "name": "encoder_birnn_forward_l0_t36_f", 
      "attrs": {"act_type": "sigmoid"}, 
      "inputs": [[534, 1, 0]]
    }, 
    {
      "op": "elemwise_mul", 
      "name": "_mul72", 
      "inputs": [[536, 0, 0], [527, 0, 0]]
    }, 
    {
      "op": "Activation", 
      "name": "encoder_birnn_forward_l0_t36_i", 
      "attrs": {"act_type": "sigmoid"}, 
      "inputs": [[534, 0, 0]]
    }, 
    {
      "op": "Activation", 
      "name": "encoder_birnn_forward_l0_t36_c", 
      "attrs": {"act_type": "tanh"}, 
      "inputs": [[534, 2, 0]]
    }, 
    {
      "op": "elemwise_mul", 
      "name": "_mul73", 
      "inputs": [[538, 0, 0], [539, 0, 0]]
    }, 
    {
      "op": "elemwise_add", 
      "name": "encoder_birnn_forward_l0_t36_state", 
      "inputs": [[537, 0, 0], [540, 0, 0]]
    }, 
    {
      "op": "Activation", 
      "name": "activation36", 
      "attrs": {"act_type": "tanh"}, 
      "inputs": [[541, 0, 0]]
    }, 
    {
      "op": "elemwise_mul", 
      "name": "encoder_birnn_forward_l0_t36_out", 
      "inputs": [[535, 0, 0], [542, 0, 0]]
    }, 
    {
      "op": "expand_dims", 
      "name": "expand_dims36", 
      "attrs": {"axis": "0"}, 
      "inputs": [[543, 0, 0]]
    }, 
    {
      "op": "FullyConnected", 
      "name": "encoder_birnn_forward_l0_t37_i2h", 
      "attrs": {"num_hidden": "2048"}, 
      "inputs": [[20, 37, 0], [21, 0, 0], [22, 0, 0]]
    }, 
    {
      "op": "FullyConnected", 
      "name": "encoder_birnn_forward_l0_t37_h2h", 
      "attrs": {"num_hidden": "2048"}, 
      "inputs": [[543, 0, 0], [25, 0, 0], [26, 0, 0]]
    }, 
    {
      "op": "elemwise_add", 
      "name": "_plus37", 
      "inputs": [[545, 0, 0], [546, 0, 0]]
    }, 
    {
      "op": "SliceChannel", 
      "name": "encoder_birnn_forward_l0_t37_slice", 
      "attrs": {"num_outputs": "4"}, 
      "inputs": [[547, 0, 0]]
    }, 
    {
      "op": "Activation", 
      "name": "encoder_birnn_forward_l0_t37_o", 
      "attrs": {"act_type": "sigmoid"}, 
      "inputs": [[548, 3, 0]]
    }, 
    {
      "op": "Activation", 
      "name": "encoder_birnn_forward_l0_t37_f", 
      "attrs": {"act_type": "sigmoid"}, 
      "inputs": [[548, 1, 0]]
    }, 
    {
      "op": "elemwise_mul", 
      "name": "_mul74", 
      "inputs": [[550, 0, 0], [541, 0, 0]]
    }, 
    {
      "op": "Activation", 
      "name": "encoder_birnn_forward_l0_t37_i", 
      "attrs": {"act_type": "sigmoid"}, 
      "inputs": [[548, 0, 0]]
    }, 
    {
      "op": "Activation", 
      "name": "encoder_birnn_forward_l0_t37_c", 
      "attrs": {"act_type": "tanh"}, 
      "inputs": [[548, 2, 0]]
    }, 
    {
      "op": "elemwise_mul", 
      "name": "_mul75", 
      "inputs": [[552, 0, 0], [553, 0, 0]]
    }, 
    {
      "op": "elemwise_add", 
      "name": "encoder_birnn_forward_l0_t37_state", 
      "inputs": [[551, 0, 0], [554, 0, 0]]
    }, 
    {
      "op": "Activation", 
      "name": "activation37", 
      "attrs": {"act_type": "tanh"}, 
      "inputs": [[555, 0, 0]]
    }, 
    {
      "op": "elemwise_mul", 
      "name": "encoder_birnn_forward_l0_t37_out", 
      "inputs": [[549, 0, 0], [556, 0, 0]]
    }, 
    {
      "op": "expand_dims", 
      "name": "expand_dims37", 
      "attrs": {"axis": "0"}, 
      "inputs": [[557, 0, 0]]
    }, 
    {
      "op": "FullyConnected", 
      "name": "encoder_birnn_forward_l0_t38_i2h", 
      "attrs": {"num_hidden": "2048"}, 
      "inputs": [[20, 38, 0], [21, 0, 0], [22, 0, 0]]
    }, 
    {
      "op": "FullyConnected", 
      "name": "encoder_birnn_forward_l0_t38_h2h", 
      "attrs": {"num_hidden": "2048"}, 
      "inputs": [[557, 0, 0], [25, 0, 0], [26, 0, 0]]
    }, 
    {
      "op": "elemwise_add", 
      "name": "_plus38", 
      "inputs": [[559, 0, 0], [560, 0, 0]]
    }, 
    {
      "op": "SliceChannel", 
      "name": "encoder_birnn_forward_l0_t38_slice", 
      "attrs": {"num_outputs": "4"}, 
      "inputs": [[561, 0, 0]]
    }, 
    {
      "op": "Activation", 
      "name": "encoder_birnn_forward_l0_t38_o", 
      "attrs": {"act_type": "sigmoid"}, 
      "inputs": [[562, 3, 0]]
    }, 
    {
      "op": "Activation", 
      "name": "encoder_birnn_forward_l0_t38_f", 
      "attrs": {"act_type": "sigmoid"}, 
      "inputs": [[562, 1, 0]]
    }, 
    {
      "op": "elemwise_mul", 
      "name": "_mul76", 
      "inputs": [[564, 0, 0], [555, 0, 0]]
    }, 
    {
      "op": "Activation", 
      "name": "encoder_birnn_forward_l0_t38_i", 
      "attrs": {"act_type": "sigmoid"}, 
      "inputs": [[562, 0, 0]]
    }, 
    {
      "op": "Activation", 
      "name": "encoder_birnn_forward_l0_t38_c", 
      "attrs": {"act_type": "tanh"}, 
      "inputs": [[562, 2, 0]]
    }, 
    {
      "op": "elemwise_mul", 
      "name": "_mul77", 
      "inputs": [[566, 0, 0], [567, 0, 0]]
    }, 
    {
      "op": "elemwise_add", 
      "name": "encoder_birnn_forward_l0_t38_state", 
      "inputs": [[565, 0, 0], [568, 0, 0]]
    }, 
    {
      "op": "Activation", 
      "name": "activation38", 
      "attrs": {"act_type": "tanh"}, 
      "inputs": [[569, 0, 0]]
    }, 
    {
      "op": "elemwise_mul", 
      "name": "encoder_birnn_forward_l0_t38_out", 
      "inputs": [[563, 0, 0], [570, 0, 0]]
    }, 
    {
      "op": "expand_dims", 
      "name": "expand_dims38", 
      "attrs": {"axis": "0"}, 
      "inputs": [[571, 0, 0]]
    }, 
    {
      "op": "FullyConnected", 
      "name": "encoder_birnn_forward_l0_t39_i2h", 
      "attrs": {"num_hidden": "2048"}, 
      "inputs": [[20, 39, 0], [21, 0, 0], [22, 0, 0]]
    }, 
    {
      "op": "FullyConnected", 
      "name": "encoder_birnn_forward_l0_t39_h2h", 
      "attrs": {"num_hidden": "2048"}, 
      "inputs": [[571, 0, 0], [25, 0, 0], [26, 0, 0]]
    }, 
    {
      "op": "elemwise_add", 
      "name": "_plus39", 
      "inputs": [[573, 0, 0], [574, 0, 0]]
    }, 
    {
      "op": "SliceChannel", 
      "name": "encoder_birnn_forward_l0_t39_slice", 
      "attrs": {"num_outputs": "4"}, 
      "inputs": [[575, 0, 0]]
    }, 
    {
      "op": "Activation", 
      "name": "encoder_birnn_forward_l0_t39_o", 
      "attrs": {"act_type": "sigmoid"}, 
      "inputs": [[576, 3, 0]]
    }, 
    {
      "op": "Activation", 
      "name": "encoder_birnn_forward_l0_t39_f", 
      "attrs": {"act_type": "sigmoid"}, 
      "inputs": [[576, 1, 0]]
    }, 
    {
      "op": "elemwise_mul", 
      "name": "_mul78", 
      "inputs": [[578, 0, 0], [569, 0, 0]]
    }, 
    {
      "op": "Activation", 
      "name": "encoder_birnn_forward_l0_t39_i", 
      "attrs": {"act_type": "sigmoid"}, 
      "inputs": [[576, 0, 0]]
    }, 
    {
      "op": "Activation", 
      "name": "encoder_birnn_forward_l0_t39_c", 
      "attrs": {"act_type": "tanh"}, 
      "inputs": [[576, 2, 0]]
    }, 
    {
      "op": "elemwise_mul", 
      "name": "_mul79", 
      "inputs": [[580, 0, 0], [581, 0, 0]]
    }, 
    {
      "op": "elemwise_add", 
      "name": "encoder_birnn_forward_l0_t39_state", 
      "inputs": [[579, 0, 0], [582, 0, 0]]
    }, 
    {
      "op": "Activation", 
      "name": "activation39", 
      "attrs": {"act_type": "tanh"}, 
      "inputs": [[583, 0, 0]]
    }, 
    {
      "op": "elemwise_mul", 
      "name": "encoder_birnn_forward_l0_t39_out", 
      "inputs": [[577, 0, 0], [584, 0, 0]]
    }, 
    {
      "op": "expand_dims", 
      "name": "expand_dims39", 
      "attrs": {"axis": "0"}, 
      "inputs": [[585, 0, 0]]
    }, 
    {
      "op": "FullyConnected", 
      "name": "encoder_birnn_forward_l0_t40_i2h", 
      "attrs": {"num_hidden": "2048"}, 
      "inputs": [[20, 40, 0], [21, 0, 0], [22, 0, 0]]
    }, 
    {
      "op": "FullyConnected", 
      "name": "encoder_birnn_forward_l0_t40_h2h", 
      "attrs": {"num_hidden": "2048"}, 
      "inputs": [[585, 0, 0], [25, 0, 0], [26, 0, 0]]
    }, 
    {
      "op": "elemwise_add", 
      "name": "_plus40", 
      "inputs": [[587, 0, 0], [588, 0, 0]]
    }, 
    {
      "op": "SliceChannel", 
      "name": "encoder_birnn_forward_l0_t40_slice", 
      "attrs": {"num_outputs": "4"}, 
      "inputs": [[589, 0, 0]]
    }, 
    {
      "op": "Activation", 
      "name": "encoder_birnn_forward_l0_t40_o", 
      "attrs": {"act_type": "sigmoid"}, 
      "inputs": [[590, 3, 0]]
    }, 
    {
      "op": "Activation", 
      "name": "encoder_birnn_forward_l0_t40_f", 
      "attrs": {"act_type": "sigmoid"}, 
      "inputs": [[590, 1, 0]]
    }, 
    {
      "op": "elemwise_mul", 
      "name": "_mul80", 
      "inputs": [[592, 0, 0], [583, 0, 0]]
    }, 
    {
      "op": "Activation", 
      "name": "encoder_birnn_forward_l0_t40_i", 
      "attrs": {"act_type": "sigmoid"}, 
      "inputs": [[590, 0, 0]]
    }, 
    {
      "op": "Activation", 
      "name": "encoder_birnn_forward_l0_t40_c", 
      "attrs": {"act_type": "tanh"}, 
      "inputs": [[590, 2, 0]]
    }, 
    {
      "op": "elemwise_mul", 
      "name": "_mul81", 
      "inputs": [[594, 0, 0], [595, 0, 0]]
    }, 
    {
      "op": "elemwise_add", 
      "name": "encoder_birnn_forward_l0_t40_state", 
      "inputs": [[593, 0, 0], [596, 0, 0]]
    }, 
    {
      "op": "Activation", 
      "name": "activation40", 
      "attrs": {"act_type": "tanh"}, 
      "inputs": [[597, 0, 0]]
    }, 
    {
      "op": "elemwise_mul", 
      "name": "encoder_birnn_forward_l0_t40_out", 
      "inputs": [[591, 0, 0], [598, 0, 0]]
    }, 
    {
      "op": "expand_dims", 
      "name": "expand_dims40", 
      "attrs": {"axis": "0"}, 
      "inputs": [[599, 0, 0]]
    }, 
    {
      "op": "FullyConnected", 
      "name": "encoder_birnn_forward_l0_t41_i2h", 
      "attrs": {"num_hidden": "2048"}, 
      "inputs": [[20, 41, 0], [21, 0, 0], [22, 0, 0]]
    }, 
    {
      "op": "FullyConnected", 
      "name": "encoder_birnn_forward_l0_t41_h2h", 
      "attrs": {"num_hidden": "2048"}, 
      "inputs": [[599, 0, 0], [25, 0, 0], [26, 0, 0]]
    }, 
    {
      "op": "elemwise_add", 
      "name": "_plus41", 
      "inputs": [[601, 0, 0], [602, 0, 0]]
    }, 
    {
      "op": "SliceChannel", 
      "name": "encoder_birnn_forward_l0_t41_slice", 
      "attrs": {"num_outputs": "4"}, 
      "inputs": [[603, 0, 0]]
    }, 
    {
      "op": "Activation", 
      "name": "encoder_birnn_forward_l0_t41_o", 
      "attrs": {"act_type": "sigmoid"}, 
      "inputs": [[604, 3, 0]]
    }, 
    {
      "op": "Activation", 
      "name": "encoder_birnn_forward_l0_t41_f", 
      "attrs": {"act_type": "sigmoid"}, 
      "inputs": [[604, 1, 0]]
    }, 
    {
      "op": "elemwise_mul", 
      "name": "_mul82", 
      "inputs": [[606, 0, 0], [597, 0, 0]]
    }, 
    {
      "op": "Activation", 
      "name": "encoder_birnn_forward_l0_t41_i", 
      "attrs": {"act_type": "sigmoid"}, 
      "inputs": [[604, 0, 0]]
    }, 
    {
      "op": "Activation", 
      "name": "encoder_birnn_forward_l0_t41_c", 
      "attrs": {"act_type": "tanh"}, 
      "inputs": [[604, 2, 0]]
    }, 
    {
      "op": "elemwise_mul", 
      "name": "_mul83", 
      "inputs": [[608, 0, 0], [609, 0, 0]]
    }, 
    {
      "op": "elemwise_add", 
      "name": "encoder_birnn_forward_l0_t41_state", 
      "inputs": [[607, 0, 0], [610, 0, 0]]
    }, 
    {
      "op": "Activation", 
      "name": "activation41", 
      "attrs": {"act_type": "tanh"}, 
      "inputs": [[611, 0, 0]]
    }, 
    {
      "op": "elemwise_mul", 
      "name": "encoder_birnn_forward_l0_t41_out", 
      "inputs": [[605, 0, 0], [612, 0, 0]]
    }, 
    {
      "op": "expand_dims", 
      "name": "expand_dims41", 
      "attrs": {"axis": "0"}, 
      "inputs": [[613, 0, 0]]
    }, 
    {
      "op": "FullyConnected", 
      "name": "encoder_birnn_forward_l0_t42_i2h", 
      "attrs": {"num_hidden": "2048"}, 
      "inputs": [[20, 42, 0], [21, 0, 0], [22, 0, 0]]
    }, 
    {
      "op": "FullyConnected", 
      "name": "encoder_birnn_forward_l0_t42_h2h", 
      "attrs": {"num_hidden": "2048"}, 
      "inputs": [[613, 0, 0], [25, 0, 0], [26, 0, 0]]
    }, 
    {
      "op": "elemwise_add", 
      "name": "_plus42", 
      "inputs": [[615, 0, 0], [616, 0, 0]]
    }, 
    {
      "op": "SliceChannel", 
      "name": "encoder_birnn_forward_l0_t42_slice", 
      "attrs": {"num_outputs": "4"}, 
      "inputs": [[617, 0, 0]]
    }, 
    {
      "op": "Activation", 
      "name": "encoder_birnn_forward_l0_t42_o", 
      "attrs": {"act_type": "sigmoid"}, 
      "inputs": [[618, 3, 0]]
    }, 
    {
      "op": "Activation", 
      "name": "encoder_birnn_forward_l0_t42_f", 
      "attrs": {"act_type": "sigmoid"}, 
      "inputs": [[618, 1, 0]]
    }, 
    {
      "op": "elemwise_mul", 
      "name": "_mul84", 
      "inputs": [[620, 0, 0], [611, 0, 0]]
    }, 
    {
      "op": "Activation", 
      "name": "encoder_birnn_forward_l0_t42_i", 
      "attrs": {"act_type": "sigmoid"}, 
      "inputs": [[618, 0, 0]]
    }, 
    {
      "op": "Activation", 
      "name": "encoder_birnn_forward_l0_t42_c", 
      "attrs": {"act_type": "tanh"}, 
      "inputs": [[618, 2, 0]]
    }, 
    {
      "op": "elemwise_mul", 
      "name": "_mul85", 
      "inputs": [[622, 0, 0], [623, 0, 0]]
    }, 
    {
      "op": "elemwise_add", 
      "name": "encoder_birnn_forward_l0_t42_state", 
      "inputs": [[621, 0, 0], [624, 0, 0]]
    }, 
    {
      "op": "Activation", 
      "name": "activation42", 
      "attrs": {"act_type": "tanh"}, 
      "inputs": [[625, 0, 0]]
    }, 
    {
      "op": "elemwise_mul", 
      "name": "encoder_birnn_forward_l0_t42_out", 
      "inputs": [[619, 0, 0], [626, 0, 0]]
    }, 
    {
      "op": "expand_dims", 
      "name": "expand_dims42", 
      "attrs": {"axis": "0"}, 
      "inputs": [[627, 0, 0]]
    }, 
    {
      "op": "FullyConnected", 
      "name": "encoder_birnn_forward_l0_t43_i2h", 
      "attrs": {"num_hidden": "2048"}, 
      "inputs": [[20, 43, 0], [21, 0, 0], [22, 0, 0]]
    }, 
    {
      "op": "FullyConnected", 
      "name": "encoder_birnn_forward_l0_t43_h2h", 
      "attrs": {"num_hidden": "2048"}, 
      "inputs": [[627, 0, 0], [25, 0, 0], [26, 0, 0]]
    }, 
    {
      "op": "elemwise_add", 
      "name": "_plus43", 
      "inputs": [[629, 0, 0], [630, 0, 0]]
    }, 
    {
      "op": "SliceChannel", 
      "name": "encoder_birnn_forward_l0_t43_slice", 
      "attrs": {"num_outputs": "4"}, 
      "inputs": [[631, 0, 0]]
    }, 
    {
      "op": "Activation", 
      "name": "encoder_birnn_forward_l0_t43_o", 
      "attrs": {"act_type": "sigmoid"}, 
      "inputs": [[632, 3, 0]]
    }, 
    {
      "op": "Activation", 
      "name": "encoder_birnn_forward_l0_t43_f", 
      "attrs": {"act_type": "sigmoid"}, 
      "inputs": [[632, 1, 0]]
    }, 
    {
      "op": "elemwise_mul", 
      "name": "_mul86", 
      "inputs": [[634, 0, 0], [625, 0, 0]]
    }, 
    {
      "op": "Activation", 
      "name": "encoder_birnn_forward_l0_t43_i", 
      "attrs": {"act_type": "sigmoid"}, 
      "inputs": [[632, 0, 0]]
    }, 
    {
      "op": "Activation", 
      "name": "encoder_birnn_forward_l0_t43_c", 
      "attrs": {"act_type": "tanh"}, 
      "inputs": [[632, 2, 0]]
    }, 
    {
      "op": "elemwise_mul", 
      "name": "_mul87", 
      "inputs": [[636, 0, 0], [637, 0, 0]]
    }, 
    {
      "op": "elemwise_add", 
      "name": "encoder_birnn_forward_l0_t43_state", 
      "inputs": [[635, 0, 0], [638, 0, 0]]
    }, 
    {
      "op": "Activation", 
      "name": "activation43", 
      "attrs": {"act_type": "tanh"}, 
      "inputs": [[639, 0, 0]]
    }, 
    {
      "op": "elemwise_mul", 
      "name": "encoder_birnn_forward_l0_t43_out", 
      "inputs": [[633, 0, 0], [640, 0, 0]]
    }, 
    {
      "op": "expand_dims", 
      "name": "expand_dims43", 
      "attrs": {"axis": "0"}, 
      "inputs": [[641, 0, 0]]
    }, 
    {
      "op": "FullyConnected", 
      "name": "encoder_birnn_forward_l0_t44_i2h", 
      "attrs": {"num_hidden": "2048"}, 
      "inputs": [[20, 44, 0], [21, 0, 0], [22, 0, 0]]
    }, 
    {
      "op": "FullyConnected", 
      "name": "encoder_birnn_forward_l0_t44_h2h", 
      "attrs": {"num_hidden": "2048"}, 
      "inputs": [[641, 0, 0], [25, 0, 0], [26, 0, 0]]
    }, 
    {
      "op": "elemwise_add", 
      "name": "_plus44", 
      "inputs": [[643, 0, 0], [644, 0, 0]]
    }, 
    {
      "op": "SliceChannel", 
      "name": "encoder_birnn_forward_l0_t44_slice", 
      "attrs": {"num_outputs": "4"}, 
      "inputs": [[645, 0, 0]]
    }, 
    {
      "op": "Activation", 
      "name": "encoder_birnn_forward_l0_t44_o", 
      "attrs": {"act_type": "sigmoid"}, 
      "inputs": [[646, 3, 0]]
    }, 
    {
      "op": "Activation", 
      "name": "encoder_birnn_forward_l0_t44_f", 
      "attrs": {"act_type": "sigmoid"}, 
      "inputs": [[646, 1, 0]]
    }, 
    {
      "op": "elemwise_mul", 
      "name": "_mul88", 
      "inputs": [[648, 0, 0], [639, 0, 0]]
    }, 
    {
      "op": "Activation", 
      "name": "encoder_birnn_forward_l0_t44_i", 
      "attrs": {"act_type": "sigmoid"}, 
      "inputs": [[646, 0, 0]]
    }, 
    {
      "op": "Activation", 
      "name": "encoder_birnn_forward_l0_t44_c", 
      "attrs": {"act_type": "tanh"}, 
      "inputs": [[646, 2, 0]]
    }, 
    {
      "op": "elemwise_mul", 
      "name": "_mul89", 
      "inputs": [[650, 0, 0], [651, 0, 0]]
    }, 
    {
      "op": "elemwise_add", 
      "name": "encoder_birnn_forward_l0_t44_state", 
      "inputs": [[649, 0, 0], [652, 0, 0]]
    }, 
    {
      "op": "Activation", 
      "name": "activation44", 
      "attrs": {"act_type": "tanh"}, 
      "inputs": [[653, 0, 0]]
    }, 
    {
      "op": "elemwise_mul", 
      "name": "encoder_birnn_forward_l0_t44_out", 
      "inputs": [[647, 0, 0], [654, 0, 0]]
    }, 
    {
      "op": "expand_dims", 
      "name": "expand_dims44", 
      "attrs": {"axis": "0"}, 
      "inputs": [[655, 0, 0]]
    }, 
    {
      "op": "FullyConnected", 
      "name": "encoder_birnn_forward_l0_t45_i2h", 
      "attrs": {"num_hidden": "2048"}, 
      "inputs": [[20, 45, 0], [21, 0, 0], [22, 0, 0]]
    }, 
    {
      "op": "FullyConnected", 
      "name": "encoder_birnn_forward_l0_t45_h2h", 
      "attrs": {"num_hidden": "2048"}, 
      "inputs": [[655, 0, 0], [25, 0, 0], [26, 0, 0]]
    }, 
    {
      "op": "elemwise_add", 
      "name": "_plus45", 
      "inputs": [[657, 0, 0], [658, 0, 0]]
    }, 
    {
      "op": "SliceChannel", 
      "name": "encoder_birnn_forward_l0_t45_slice", 
      "attrs": {"num_outputs": "4"}, 
      "inputs": [[659, 0, 0]]
    }, 
    {
      "op": "Activation", 
      "name": "encoder_birnn_forward_l0_t45_o", 
      "attrs": {"act_type": "sigmoid"}, 
      "inputs": [[660, 3, 0]]
    }, 
    {
      "op": "Activation", 
      "name": "encoder_birnn_forward_l0_t45_f", 
      "attrs": {"act_type": "sigmoid"}, 
      "inputs": [[660, 1, 0]]
    }, 
    {
      "op": "elemwise_mul", 
      "name": "_mul90", 
      "inputs": [[662, 0, 0], [653, 0, 0]]
    }, 
    {
      "op": "Activation", 
      "name": "encoder_birnn_forward_l0_t45_i", 
      "attrs": {"act_type": "sigmoid"}, 
      "inputs": [[660, 0, 0]]
    }, 
    {
      "op": "Activation", 
      "name": "encoder_birnn_forward_l0_t45_c", 
      "attrs": {"act_type": "tanh"}, 
      "inputs": [[660, 2, 0]]
    }, 
    {
      "op": "elemwise_mul", 
      "name": "_mul91", 
      "inputs": [[664, 0, 0], [665, 0, 0]]
    }, 
    {
      "op": "elemwise_add", 
      "name": "encoder_birnn_forward_l0_t45_state", 
      "inputs": [[663, 0, 0], [666, 0, 0]]
    }, 
    {
      "op": "Activation", 
      "name": "activation45", 
      "attrs": {"act_type": "tanh"}, 
      "inputs": [[667, 0, 0]]
    }, 
    {
      "op": "elemwise_mul", 
      "name": "encoder_birnn_forward_l0_t45_out", 
      "inputs": [[661, 0, 0], [668, 0, 0]]
    }, 
    {
      "op": "expand_dims", 
      "name": "expand_dims45", 
      "attrs": {"axis": "0"}, 
      "inputs": [[669, 0, 0]]
    }, 
    {
      "op": "FullyConnected", 
      "name": "encoder_birnn_forward_l0_t46_i2h", 
      "attrs": {"num_hidden": "2048"}, 
      "inputs": [[20, 46, 0], [21, 0, 0], [22, 0, 0]]
    }, 
    {
      "op": "FullyConnected", 
      "name": "encoder_birnn_forward_l0_t46_h2h", 
      "attrs": {"num_hidden": "2048"}, 
      "inputs": [[669, 0, 0], [25, 0, 0], [26, 0, 0]]
    }, 
    {
      "op": "elemwise_add", 
      "name": "_plus46", 
      "inputs": [[671, 0, 0], [672, 0, 0]]
    }, 
    {
      "op": "SliceChannel", 
      "name": "encoder_birnn_forward_l0_t46_slice", 
      "attrs": {"num_outputs": "4"}, 
      "inputs": [[673, 0, 0]]
    }, 
    {
      "op": "Activation", 
      "name": "encoder_birnn_forward_l0_t46_o", 
      "attrs": {"act_type": "sigmoid"}, 
      "inputs": [[674, 3, 0]]
    }, 
    {
      "op": "Activation", 
      "name": "encoder_birnn_forward_l0_t46_f", 
      "attrs": {"act_type": "sigmoid"}, 
      "inputs": [[674, 1, 0]]
    }, 
    {
      "op": "elemwise_mul", 
      "name": "_mul92", 
      "inputs": [[676, 0, 0], [667, 0, 0]]
    }, 
    {
      "op": "Activation", 
      "name": "encoder_birnn_forward_l0_t46_i", 
      "attrs": {"act_type": "sigmoid"}, 
      "inputs": [[674, 0, 0]]
    }, 
    {
      "op": "Activation", 
      "name": "encoder_birnn_forward_l0_t46_c", 
      "attrs": {"act_type": "tanh"}, 
      "inputs": [[674, 2, 0]]
    }, 
    {
      "op": "elemwise_mul", 
      "name": "_mul93", 
      "inputs": [[678, 0, 0], [679, 0, 0]]
    }, 
    {
      "op": "elemwise_add", 
      "name": "encoder_birnn_forward_l0_t46_state", 
      "inputs": [[677, 0, 0], [680, 0, 0]]
    }, 
    {
      "op": "Activation", 
      "name": "activation46", 
      "attrs": {"act_type": "tanh"}, 
      "inputs": [[681, 0, 0]]
    }, 
    {
      "op": "elemwise_mul", 
      "name": "encoder_birnn_forward_l0_t46_out", 
      "inputs": [[675, 0, 0], [682, 0, 0]]
    }, 
    {
      "op": "expand_dims", 
      "name": "expand_dims46", 
      "attrs": {"axis": "0"}, 
      "inputs": [[683, 0, 0]]
    }, 
    {
      "op": "FullyConnected", 
      "name": "encoder_birnn_forward_l0_t47_i2h", 
      "attrs": {"num_hidden": "2048"}, 
      "inputs": [[20, 47, 0], [21, 0, 0], [22, 0, 0]]
    }, 
    {
      "op": "FullyConnected", 
      "name": "encoder_birnn_forward_l0_t47_h2h", 
      "attrs": {"num_hidden": "2048"}, 
      "inputs": [[683, 0, 0], [25, 0, 0], [26, 0, 0]]
    }, 
    {
      "op": "elemwise_add", 
      "name": "_plus47", 
      "inputs": [[685, 0, 0], [686, 0, 0]]
    }, 
    {
      "op": "SliceChannel", 
      "name": "encoder_birnn_forward_l0_t47_slice", 
      "attrs": {"num_outputs": "4"}, 
      "inputs": [[687, 0, 0]]
    }, 
    {
      "op": "Activation", 
      "name": "encoder_birnn_forward_l0_t47_o", 
      "attrs": {"act_type": "sigmoid"}, 
      "inputs": [[688, 3, 0]]
    }, 
    {
      "op": "Activation", 
      "name": "encoder_birnn_forward_l0_t47_f", 
      "attrs": {"act_type": "sigmoid"}, 
      "inputs": [[688, 1, 0]]
    }, 
    {
      "op": "elemwise_mul", 
      "name": "_mul94", 
      "inputs": [[690, 0, 0], [681, 0, 0]]
    }, 
    {
      "op": "Activation", 
      "name": "encoder_birnn_forward_l0_t47_i", 
      "attrs": {"act_type": "sigmoid"}, 
      "inputs": [[688, 0, 0]]
    }, 
    {
      "op": "Activation", 
      "name": "encoder_birnn_forward_l0_t47_c", 
      "attrs": {"act_type": "tanh"}, 
      "inputs": [[688, 2, 0]]
    }, 
    {
      "op": "elemwise_mul", 
      "name": "_mul95", 
      "inputs": [[692, 0, 0], [693, 0, 0]]
    }, 
    {
      "op": "elemwise_add", 
      "name": "encoder_birnn_forward_l0_t47_state", 
      "inputs": [[691, 0, 0], [694, 0, 0]]
    }, 
    {
      "op": "Activation", 
      "name": "activation47", 
      "attrs": {"act_type": "tanh"}, 
      "inputs": [[695, 0, 0]]
    }, 
    {
      "op": "elemwise_mul", 
      "name": "encoder_birnn_forward_l0_t47_out", 
      "inputs": [[689, 0, 0], [696, 0, 0]]
    }, 
    {
      "op": "expand_dims", 
      "name": "expand_dims47", 
      "attrs": {"axis": "0"}, 
      "inputs": [[697, 0, 0]]
    }, 
    {
      "op": "FullyConnected", 
      "name": "encoder_birnn_forward_l0_t48_i2h", 
      "attrs": {"num_hidden": "2048"}, 
      "inputs": [[20, 48, 0], [21, 0, 0], [22, 0, 0]]
    }, 
    {
      "op": "FullyConnected", 
      "name": "encoder_birnn_forward_l0_t48_h2h", 
      "attrs": {"num_hidden": "2048"}, 
      "inputs": [[697, 0, 0], [25, 0, 0], [26, 0, 0]]
    }, 
    {
      "op": "elemwise_add", 
      "name": "_plus48", 
      "inputs": [[699, 0, 0], [700, 0, 0]]
    }, 
    {
      "op": "SliceChannel", 
      "name": "encoder_birnn_forward_l0_t48_slice", 
      "attrs": {"num_outputs": "4"}, 
      "inputs": [[701, 0, 0]]
    }, 
    {
      "op": "Activation", 
      "name": "encoder_birnn_forward_l0_t48_o", 
      "attrs": {"act_type": "sigmoid"}, 
      "inputs": [[702, 3, 0]]
    }, 
    {
      "op": "Activation", 
      "name": "encoder_birnn_forward_l0_t48_f", 
      "attrs": {"act_type": "sigmoid"}, 
      "inputs": [[702, 1, 0]]
    }, 
    {
      "op": "elemwise_mul", 
      "name": "_mul96", 
      "inputs": [[704, 0, 0], [695, 0, 0]]
    }, 
    {
      "op": "Activation", 
      "name": "encoder_birnn_forward_l0_t48_i", 
      "attrs": {"act_type": "sigmoid"}, 
      "inputs": [[702, 0, 0]]
    }, 
    {
      "op": "Activation", 
      "name": "encoder_birnn_forward_l0_t48_c", 
      "attrs": {"act_type": "tanh"}, 
      "inputs": [[702, 2, 0]]
    }, 
    {
      "op": "elemwise_mul", 
      "name": "_mul97", 
      "inputs": [[706, 0, 0], [707, 0, 0]]
    }, 
    {
      "op": "elemwise_add", 
      "name": "encoder_birnn_forward_l0_t48_state", 
      "inputs": [[705, 0, 0], [708, 0, 0]]
    }, 
    {
      "op": "Activation", 
      "name": "activation48", 
      "attrs": {"act_type": "tanh"}, 
      "inputs": [[709, 0, 0]]
    }, 
    {
      "op": "elemwise_mul", 
      "name": "encoder_birnn_forward_l0_t48_out", 
      "inputs": [[703, 0, 0], [710, 0, 0]]
    }, 
    {
      "op": "expand_dims", 
      "name": "expand_dims48", 
      "attrs": {"axis": "0"}, 
      "inputs": [[711, 0, 0]]
    }, 
    {
      "op": "FullyConnected", 
      "name": "encoder_birnn_forward_l0_t49_i2h", 
      "attrs": {"num_hidden": "2048"}, 
      "inputs": [[20, 49, 0], [21, 0, 0], [22, 0, 0]]
    }, 
    {
      "op": "FullyConnected", 
      "name": "encoder_birnn_forward_l0_t49_h2h", 
      "attrs": {"num_hidden": "2048"}, 
      "inputs": [[711, 0, 0], [25, 0, 0], [26, 0, 0]]
    }, 
    {
      "op": "elemwise_add", 
      "name": "_plus49", 
      "inputs": [[713, 0, 0], [714, 0, 0]]
    }, 
    {
      "op": "SliceChannel", 
      "name": "encoder_birnn_forward_l0_t49_slice", 
      "attrs": {"num_outputs": "4"}, 
      "inputs": [[715, 0, 0]]
    }, 
    {
      "op": "Activation", 
      "name": "encoder_birnn_forward_l0_t49_o", 
      "attrs": {"act_type": "sigmoid"}, 
      "inputs": [[716, 3, 0]]
    }, 
    {
      "op": "Activation", 
      "name": "encoder_birnn_forward_l0_t49_f", 
      "attrs": {"act_type": "sigmoid"}, 
      "inputs": [[716, 1, 0]]
    }, 
    {
      "op": "elemwise_mul", 
      "name": "_mul98", 
      "inputs": [[718, 0, 0], [709, 0, 0]]
    }, 
    {
      "op": "Activation", 
      "name": "encoder_birnn_forward_l0_t49_i", 
      "attrs": {"act_type": "sigmoid"}, 
      "inputs": [[716, 0, 0]]
    }, 
    {
      "op": "Activation", 
      "name": "encoder_birnn_forward_l0_t49_c", 
      "attrs": {"act_type": "tanh"}, 
      "inputs": [[716, 2, 0]]
    }, 
    {
      "op": "elemwise_mul", 
      "name": "_mul99", 
      "inputs": [[720, 0, 0], [721, 0, 0]]
    }, 
    {
      "op": "elemwise_add", 
      "name": "encoder_birnn_forward_l0_t49_state", 
      "inputs": [[719, 0, 0], [722, 0, 0]]
    }, 
    {
      "op": "Activation", 
      "name": "activation49", 
      "attrs": {"act_type": "tanh"}, 
      "inputs": [[723, 0, 0]]
    }, 
    {
      "op": "elemwise_mul", 
      "name": "encoder_birnn_forward_l0_t49_out", 
      "inputs": [[717, 0, 0], [724, 0, 0]]
    }, 
    {
      "op": "expand_dims", 
      "name": "expand_dims49", 
      "attrs": {"axis": "0"}, 
      "inputs": [[725, 0, 0]]
    }, 
    {
      "op": "FullyConnected", 
      "name": "encoder_birnn_forward_l0_t50_i2h", 
      "attrs": {"num_hidden": "2048"}, 
      "inputs": [[20, 50, 0], [21, 0, 0], [22, 0, 0]]
    }, 
    {
      "op": "FullyConnected", 
      "name": "encoder_birnn_forward_l0_t50_h2h", 
      "attrs": {"num_hidden": "2048"}, 
      "inputs": [[725, 0, 0], [25, 0, 0], [26, 0, 0]]
    }, 
    {
      "op": "elemwise_add", 
      "name": "_plus50", 
      "inputs": [[727, 0, 0], [728, 0, 0]]
    }, 
    {
      "op": "SliceChannel", 
      "name": "encoder_birnn_forward_l0_t50_slice", 
      "attrs": {"num_outputs": "4"}, 
      "inputs": [[729, 0, 0]]
    }, 
    {
      "op": "Activation", 
      "name": "encoder_birnn_forward_l0_t50_o", 
      "attrs": {"act_type": "sigmoid"}, 
      "inputs": [[730, 3, 0]]
    }, 
    {
      "op": "Activation", 
      "name": "encoder_birnn_forward_l0_t50_f", 
      "attrs": {"act_type": "sigmoid"}, 
      "inputs": [[730, 1, 0]]
    }, 
    {
      "op": "elemwise_mul", 
      "name": "_mul100", 
      "inputs": [[732, 0, 0], [723, 0, 0]]
    }, 
    {
      "op": "Activation", 
      "name": "encoder_birnn_forward_l0_t50_i", 
      "attrs": {"act_type": "sigmoid"}, 
      "inputs": [[730, 0, 0]]
    }, 
    {
      "op": "Activation", 
      "name": "encoder_birnn_forward_l0_t50_c", 
      "attrs": {"act_type": "tanh"}, 
      "inputs": [[730, 2, 0]]
    }, 
    {
      "op": "elemwise_mul", 
      "name": "_mul101", 
      "inputs": [[734, 0, 0], [735, 0, 0]]
    }, 
    {
      "op": "elemwise_add", 
      "name": "encoder_birnn_forward_l0_t50_state", 
      "inputs": [[733, 0, 0], [736, 0, 0]]
    }, 
    {
      "op": "Activation", 
      "name": "activation50", 
      "attrs": {"act_type": "tanh"}, 
      "inputs": [[737, 0, 0]]
    }, 
    {
      "op": "elemwise_mul", 
      "name": "encoder_birnn_forward_l0_t50_out", 
      "inputs": [[731, 0, 0], [738, 0, 0]]
    }, 
    {
      "op": "expand_dims", 
      "name": "expand_dims50", 
      "attrs": {"axis": "0"}, 
      "inputs": [[739, 0, 0]]
    }, 
    {
      "op": "FullyConnected", 
      "name": "encoder_birnn_forward_l0_t51_i2h", 
      "attrs": {"num_hidden": "2048"}, 
      "inputs": [[20, 51, 0], [21, 0, 0], [22, 0, 0]]
    }, 
    {
      "op": "FullyConnected", 
      "name": "encoder_birnn_forward_l0_t51_h2h", 
      "attrs": {"num_hidden": "2048"}, 
      "inputs": [[739, 0, 0], [25, 0, 0], [26, 0, 0]]
    }, 
    {
      "op": "elemwise_add", 
      "name": "_plus51", 
      "inputs": [[741, 0, 0], [742, 0, 0]]
    }, 
    {
      "op": "SliceChannel", 
      "name": "encoder_birnn_forward_l0_t51_slice", 
      "attrs": {"num_outputs": "4"}, 
      "inputs": [[743, 0, 0]]
    }, 
    {
      "op": "Activation", 
      "name": "encoder_birnn_forward_l0_t51_o", 
      "attrs": {"act_type": "sigmoid"}, 
      "inputs": [[744, 3, 0]]
    }, 
    {
      "op": "Activation", 
      "name": "encoder_birnn_forward_l0_t51_f", 
      "attrs": {"act_type": "sigmoid"}, 
      "inputs": [[744, 1, 0]]
    }, 
    {
      "op": "elemwise_mul", 
      "name": "_mul102", 
      "inputs": [[746, 0, 0], [737, 0, 0]]
    }, 
    {
      "op": "Activation", 
      "name": "encoder_birnn_forward_l0_t51_i", 
      "attrs": {"act_type": "sigmoid"}, 
      "inputs": [[744, 0, 0]]
    }, 
    {
      "op": "Activation", 
      "name": "encoder_birnn_forward_l0_t51_c", 
      "attrs": {"act_type": "tanh"}, 
      "inputs": [[744, 2, 0]]
    }, 
    {
      "op": "elemwise_mul", 
      "name": "_mul103", 
      "inputs": [[748, 0, 0], [749, 0, 0]]
    }, 
    {
      "op": "elemwise_add", 
      "name": "encoder_birnn_forward_l0_t51_state", 
      "inputs": [[747, 0, 0], [750, 0, 0]]
    }, 
    {
      "op": "Activation", 
      "name": "activation51", 
      "attrs": {"act_type": "tanh"}, 
      "inputs": [[751, 0, 0]]
    }, 
    {
      "op": "elemwise_mul", 
      "name": "encoder_birnn_forward_l0_t51_out", 
      "inputs": [[745, 0, 0], [752, 0, 0]]
    }, 
    {
      "op": "expand_dims", 
      "name": "expand_dims51", 
      "attrs": {"axis": "0"}, 
      "inputs": [[753, 0, 0]]
    }, 
    {
      "op": "FullyConnected", 
      "name": "encoder_birnn_forward_l0_t52_i2h", 
      "attrs": {"num_hidden": "2048"}, 
      "inputs": [[20, 52, 0], [21, 0, 0], [22, 0, 0]]
    }, 
    {
      "op": "FullyConnected", 
      "name": "encoder_birnn_forward_l0_t52_h2h", 
      "attrs": {"num_hidden": "2048"}, 
      "inputs": [[753, 0, 0], [25, 0, 0], [26, 0, 0]]
    }, 
    {
      "op": "elemwise_add", 
      "name": "_plus52", 
      "inputs": [[755, 0, 0], [756, 0, 0]]
    }, 
    {
      "op": "SliceChannel", 
      "name": "encoder_birnn_forward_l0_t52_slice", 
      "attrs": {"num_outputs": "4"}, 
      "inputs": [[757, 0, 0]]
    }, 
    {
      "op": "Activation", 
      "name": "encoder_birnn_forward_l0_t52_o", 
      "attrs": {"act_type": "sigmoid"}, 
      "inputs": [[758, 3, 0]]
    }, 
    {
      "op": "Activation", 
      "name": "encoder_birnn_forward_l0_t52_f", 
      "attrs": {"act_type": "sigmoid"}, 
      "inputs": [[758, 1, 0]]
    }, 
    {
      "op": "elemwise_mul", 
      "name": "_mul104", 
      "inputs": [[760, 0, 0], [751, 0, 0]]
    }, 
    {
      "op": "Activation", 
      "name": "encoder_birnn_forward_l0_t52_i", 
      "attrs": {"act_type": "sigmoid"}, 
      "inputs": [[758, 0, 0]]
    }, 
    {
      "op": "Activation", 
      "name": "encoder_birnn_forward_l0_t52_c", 
      "attrs": {"act_type": "tanh"}, 
      "inputs": [[758, 2, 0]]
    }, 
    {
      "op": "elemwise_mul", 
      "name": "_mul105", 
      "inputs": [[762, 0, 0], [763, 0, 0]]
    }, 
    {
      "op": "elemwise_add", 
      "name": "encoder_birnn_forward_l0_t52_state", 
      "inputs": [[761, 0, 0], [764, 0, 0]]
    }, 
    {
      "op": "Activation", 
      "name": "activation52", 
      "attrs": {"act_type": "tanh"}, 
      "inputs": [[765, 0, 0]]
    }, 
    {
      "op": "elemwise_mul", 
      "name": "encoder_birnn_forward_l0_t52_out", 
      "inputs": [[759, 0, 0], [766, 0, 0]]
    }, 
    {
      "op": "expand_dims", 
      "name": "expand_dims52", 
      "attrs": {"axis": "0"}, 
      "inputs": [[767, 0, 0]]
    }, 
    {
      "op": "FullyConnected", 
      "name": "encoder_birnn_forward_l0_t53_i2h", 
      "attrs": {"num_hidden": "2048"}, 
      "inputs": [[20, 53, 0], [21, 0, 0], [22, 0, 0]]
    }, 
    {
      "op": "FullyConnected", 
      "name": "encoder_birnn_forward_l0_t53_h2h", 
      "attrs": {"num_hidden": "2048"}, 
      "inputs": [[767, 0, 0], [25, 0, 0], [26, 0, 0]]
    }, 
    {
      "op": "elemwise_add", 
      "name": "_plus53", 
      "inputs": [[769, 0, 0], [770, 0, 0]]
    }, 
    {
      "op": "SliceChannel", 
      "name": "encoder_birnn_forward_l0_t53_slice", 
      "attrs": {"num_outputs": "4"}, 
      "inputs": [[771, 0, 0]]
    }, 
    {
      "op": "Activation", 
      "name": "encoder_birnn_forward_l0_t53_o", 
      "attrs": {"act_type": "sigmoid"}, 
      "inputs": [[772, 3, 0]]
    }, 
    {
      "op": "Activation", 
      "name": "encoder_birnn_forward_l0_t53_f", 
      "attrs": {"act_type": "sigmoid"}, 
      "inputs": [[772, 1, 0]]
    }, 
    {
      "op": "elemwise_mul", 
      "name": "_mul106", 
      "inputs": [[774, 0, 0], [765, 0, 0]]
    }, 
    {
      "op": "Activation", 
      "name": "encoder_birnn_forward_l0_t53_i", 
      "attrs": {"act_type": "sigmoid"}, 
      "inputs": [[772, 0, 0]]
    }, 
    {
      "op": "Activation", 
      "name": "encoder_birnn_forward_l0_t53_c", 
      "attrs": {"act_type": "tanh"}, 
      "inputs": [[772, 2, 0]]
    }, 
    {
      "op": "elemwise_mul", 
      "name": "_mul107", 
      "inputs": [[776, 0, 0], [777, 0, 0]]
    }, 
    {
      "op": "elemwise_add", 
      "name": "encoder_birnn_forward_l0_t53_state", 
      "inputs": [[775, 0, 0], [778, 0, 0]]
    }, 
    {
      "op": "Activation", 
      "name": "activation53", 
      "attrs": {"act_type": "tanh"}, 
      "inputs": [[779, 0, 0]]
    }, 
    {
      "op": "elemwise_mul", 
      "name": "encoder_birnn_forward_l0_t53_out", 
      "inputs": [[773, 0, 0], [780, 0, 0]]
    }, 
    {
      "op": "expand_dims", 
      "name": "expand_dims53", 
      "attrs": {"axis": "0"}, 
      "inputs": [[781, 0, 0]]
    }, 
    {
      "op": "FullyConnected", 
      "name": "encoder_birnn_forward_l0_t54_i2h", 
      "attrs": {"num_hidden": "2048"}, 
      "inputs": [[20, 54, 0], [21, 0, 0], [22, 0, 0]]
    }, 
    {
      "op": "FullyConnected", 
      "name": "encoder_birnn_forward_l0_t54_h2h", 
      "attrs": {"num_hidden": "2048"}, 
      "inputs": [[781, 0, 0], [25, 0, 0], [26, 0, 0]]
    }, 
    {
      "op": "elemwise_add", 
      "name": "_plus54", 
      "inputs": [[783, 0, 0], [784, 0, 0]]
    }, 
    {
      "op": "SliceChannel", 
      "name": "encoder_birnn_forward_l0_t54_slice", 
      "attrs": {"num_outputs": "4"}, 
      "inputs": [[785, 0, 0]]
    }, 
    {
      "op": "Activation", 
      "name": "encoder_birnn_forward_l0_t54_o", 
      "attrs": {"act_type": "sigmoid"}, 
      "inputs": [[786, 3, 0]]
    }, 
    {
      "op": "Activation", 
      "name": "encoder_birnn_forward_l0_t54_f", 
      "attrs": {"act_type": "sigmoid"}, 
      "inputs": [[786, 1, 0]]
    }, 
    {
      "op": "elemwise_mul", 
      "name": "_mul108", 
      "inputs": [[788, 0, 0], [779, 0, 0]]
    }, 
    {
      "op": "Activation", 
      "name": "encoder_birnn_forward_l0_t54_i", 
      "attrs": {"act_type": "sigmoid"}, 
      "inputs": [[786, 0, 0]]
    }, 
    {
      "op": "Activation", 
      "name": "encoder_birnn_forward_l0_t54_c", 
      "attrs": {"act_type": "tanh"}, 
      "inputs": [[786, 2, 0]]
    }, 
    {
      "op": "elemwise_mul", 
      "name": "_mul109", 
      "inputs": [[790, 0, 0], [791, 0, 0]]
    }, 
    {
      "op": "elemwise_add", 
      "name": "encoder_birnn_forward_l0_t54_state", 
      "inputs": [[789, 0, 0], [792, 0, 0]]
    }, 
    {
      "op": "Activation", 
      "name": "activation54", 
      "attrs": {"act_type": "tanh"}, 
      "inputs": [[793, 0, 0]]
    }, 
    {
      "op": "elemwise_mul", 
      "name": "encoder_birnn_forward_l0_t54_out", 
      "inputs": [[787, 0, 0], [794, 0, 0]]
    }, 
    {
      "op": "expand_dims", 
      "name": "expand_dims54", 
      "attrs": {"axis": "0"}, 
      "inputs": [[795, 0, 0]]
    }, 
    {
      "op": "FullyConnected", 
      "name": "encoder_birnn_forward_l0_t55_i2h", 
      "attrs": {"num_hidden": "2048"}, 
      "inputs": [[20, 55, 0], [21, 0, 0], [22, 0, 0]]
    }, 
    {
      "op": "FullyConnected", 
      "name": "encoder_birnn_forward_l0_t55_h2h", 
      "attrs": {"num_hidden": "2048"}, 
      "inputs": [[795, 0, 0], [25, 0, 0], [26, 0, 0]]
    }, 
    {
      "op": "elemwise_add", 
      "name": "_plus55", 
      "inputs": [[797, 0, 0], [798, 0, 0]]
    }, 
    {
      "op": "SliceChannel", 
      "name": "encoder_birnn_forward_l0_t55_slice", 
      "attrs": {"num_outputs": "4"}, 
      "inputs": [[799, 0, 0]]
    }, 
    {
      "op": "Activation", 
      "name": "encoder_birnn_forward_l0_t55_o", 
      "attrs": {"act_type": "sigmoid"}, 
      "inputs": [[800, 3, 0]]
    }, 
    {
      "op": "Activation", 
      "name": "encoder_birnn_forward_l0_t55_f", 
      "attrs": {"act_type": "sigmoid"}, 
      "inputs": [[800, 1, 0]]
    }, 
    {
      "op": "elemwise_mul", 
      "name": "_mul110", 
      "inputs": [[802, 0, 0], [793, 0, 0]]
    }, 
    {
      "op": "Activation", 
      "name": "encoder_birnn_forward_l0_t55_i", 
      "attrs": {"act_type": "sigmoid"}, 
      "inputs": [[800, 0, 0]]
    }, 
    {
      "op": "Activation", 
      "name": "encoder_birnn_forward_l0_t55_c", 
      "attrs": {"act_type": "tanh"}, 
      "inputs": [[800, 2, 0]]
    }, 
    {
      "op": "elemwise_mul", 
      "name": "_mul111", 
      "inputs": [[804, 0, 0], [805, 0, 0]]
    }, 
    {
      "op": "elemwise_add", 
      "name": "encoder_birnn_forward_l0_t55_state", 
      "inputs": [[803, 0, 0], [806, 0, 0]]
    }, 
    {
      "op": "Activation", 
      "name": "activation55", 
      "attrs": {"act_type": "tanh"}, 
      "inputs": [[807, 0, 0]]
    }, 
    {
      "op": "elemwise_mul", 
      "name": "encoder_birnn_forward_l0_t55_out", 
      "inputs": [[801, 0, 0], [808, 0, 0]]
    }, 
    {
      "op": "expand_dims", 
      "name": "expand_dims55", 
      "attrs": {"axis": "0"}, 
      "inputs": [[809, 0, 0]]
    }, 
    {
      "op": "FullyConnected", 
      "name": "encoder_birnn_forward_l0_t56_i2h", 
      "attrs": {"num_hidden": "2048"}, 
      "inputs": [[20, 56, 0], [21, 0, 0], [22, 0, 0]]
    }, 
    {
      "op": "FullyConnected", 
      "name": "encoder_birnn_forward_l0_t56_h2h", 
      "attrs": {"num_hidden": "2048"}, 
      "inputs": [[809, 0, 0], [25, 0, 0], [26, 0, 0]]
    }, 
    {
      "op": "elemwise_add", 
      "name": "_plus56", 
      "inputs": [[811, 0, 0], [812, 0, 0]]
    }, 
    {
      "op": "SliceChannel", 
      "name": "encoder_birnn_forward_l0_t56_slice", 
      "attrs": {"num_outputs": "4"}, 
      "inputs": [[813, 0, 0]]
    }, 
    {
      "op": "Activation", 
      "name": "encoder_birnn_forward_l0_t56_o", 
      "attrs": {"act_type": "sigmoid"}, 
      "inputs": [[814, 3, 0]]
    }, 
    {
      "op": "Activation", 
      "name": "encoder_birnn_forward_l0_t56_f", 
      "attrs": {"act_type": "sigmoid"}, 
      "inputs": [[814, 1, 0]]
    }, 
    {
      "op": "elemwise_mul", 
      "name": "_mul112", 
      "inputs": [[816, 0, 0], [807, 0, 0]]
    }, 
    {
      "op": "Activation", 
      "name": "encoder_birnn_forward_l0_t56_i", 
      "attrs": {"act_type": "sigmoid"}, 
      "inputs": [[814, 0, 0]]
    }, 
    {
      "op": "Activation", 
      "name": "encoder_birnn_forward_l0_t56_c", 
      "attrs": {"act_type": "tanh"}, 
      "inputs": [[814, 2, 0]]
    }, 
    {
      "op": "elemwise_mul", 
      "name": "_mul113", 
      "inputs": [[818, 0, 0], [819, 0, 0]]
    }, 
    {
      "op": "elemwise_add", 
      "name": "encoder_birnn_forward_l0_t56_state", 
      "inputs": [[817, 0, 0], [820, 0, 0]]
    }, 
    {
      "op": "Activation", 
      "name": "activation56", 
      "attrs": {"act_type": "tanh"}, 
      "inputs": [[821, 0, 0]]
    }, 
    {
      "op": "elemwise_mul", 
      "name": "encoder_birnn_forward_l0_t56_out", 
      "inputs": [[815, 0, 0], [822, 0, 0]]
    }, 
    {
      "op": "expand_dims", 
      "name": "expand_dims56", 
      "attrs": {"axis": "0"}, 
      "inputs": [[823, 0, 0]]
    }, 
    {
      "op": "FullyConnected", 
      "name": "encoder_birnn_forward_l0_t57_i2h", 
      "attrs": {"num_hidden": "2048"}, 
      "inputs": [[20, 57, 0], [21, 0, 0], [22, 0, 0]]
    }, 
    {
      "op": "FullyConnected", 
      "name": "encoder_birnn_forward_l0_t57_h2h", 
      "attrs": {"num_hidden": "2048"}, 
      "inputs": [[823, 0, 0], [25, 0, 0], [26, 0, 0]]
    }, 
    {
      "op": "elemwise_add", 
      "name": "_plus57", 
      "inputs": [[825, 0, 0], [826, 0, 0]]
    }, 
    {
      "op": "SliceChannel", 
      "name": "encoder_birnn_forward_l0_t57_slice", 
      "attrs": {"num_outputs": "4"}, 
      "inputs": [[827, 0, 0]]
    }, 
    {
      "op": "Activation", 
      "name": "encoder_birnn_forward_l0_t57_o", 
      "attrs": {"act_type": "sigmoid"}, 
      "inputs": [[828, 3, 0]]
    }, 
    {
      "op": "Activation", 
      "name": "encoder_birnn_forward_l0_t57_f", 
      "attrs": {"act_type": "sigmoid"}, 
      "inputs": [[828, 1, 0]]
    }, 
    {
      "op": "elemwise_mul", 
      "name": "_mul114", 
      "inputs": [[830, 0, 0], [821, 0, 0]]
    }, 
    {
      "op": "Activation", 
      "name": "encoder_birnn_forward_l0_t57_i", 
      "attrs": {"act_type": "sigmoid"}, 
      "inputs": [[828, 0, 0]]
    }, 
    {
      "op": "Activation", 
      "name": "encoder_birnn_forward_l0_t57_c", 
      "attrs": {"act_type": "tanh"}, 
      "inputs": [[828, 2, 0]]
    }, 
    {
      "op": "elemwise_mul", 
      "name": "_mul115", 
      "inputs": [[832, 0, 0], [833, 0, 0]]
    }, 
    {
      "op": "elemwise_add", 
      "name": "encoder_birnn_forward_l0_t57_state", 
      "inputs": [[831, 0, 0], [834, 0, 0]]
    }, 
    {
      "op": "Activation", 
      "name": "activation57", 
      "attrs": {"act_type": "tanh"}, 
      "inputs": [[835, 0, 0]]
    }, 
    {
      "op": "elemwise_mul", 
      "name": "encoder_birnn_forward_l0_t57_out", 
      "inputs": [[829, 0, 0], [836, 0, 0]]
    }, 
    {
      "op": "expand_dims", 
      "name": "expand_dims57", 
      "attrs": {"axis": "0"}, 
      "inputs": [[837, 0, 0]]
    }, 
    {
      "op": "FullyConnected", 
      "name": "encoder_birnn_forward_l0_t58_i2h", 
      "attrs": {"num_hidden": "2048"}, 
      "inputs": [[20, 58, 0], [21, 0, 0], [22, 0, 0]]
    }, 
    {
      "op": "FullyConnected", 
      "name": "encoder_birnn_forward_l0_t58_h2h", 
      "attrs": {"num_hidden": "2048"}, 
      "inputs": [[837, 0, 0], [25, 0, 0], [26, 0, 0]]
    }, 
    {
      "op": "elemwise_add", 
      "name": "_plus58", 
      "inputs": [[839, 0, 0], [840, 0, 0]]
    }, 
    {
      "op": "SliceChannel", 
      "name": "encoder_birnn_forward_l0_t58_slice", 
      "attrs": {"num_outputs": "4"}, 
      "inputs": [[841, 0, 0]]
    }, 
    {
      "op": "Activation", 
      "name": "encoder_birnn_forward_l0_t58_o", 
      "attrs": {"act_type": "sigmoid"}, 
      "inputs": [[842, 3, 0]]
    }, 
    {
      "op": "Activation", 
      "name": "encoder_birnn_forward_l0_t58_f", 
      "attrs": {"act_type": "sigmoid"}, 
      "inputs": [[842, 1, 0]]
    }, 
    {
      "op": "elemwise_mul", 
      "name": "_mul116", 
      "inputs": [[844, 0, 0], [835, 0, 0]]
    }, 
    {
      "op": "Activation", 
      "name": "encoder_birnn_forward_l0_t58_i", 
      "attrs": {"act_type": "sigmoid"}, 
      "inputs": [[842, 0, 0]]
    }, 
    {
      "op": "Activation", 
      "name": "encoder_birnn_forward_l0_t58_c", 
      "attrs": {"act_type": "tanh"}, 
      "inputs": [[842, 2, 0]]
    }, 
    {
      "op": "elemwise_mul", 
      "name": "_mul117", 
      "inputs": [[846, 0, 0], [847, 0, 0]]
    }, 
    {
      "op": "elemwise_add", 
      "name": "encoder_birnn_forward_l0_t58_state", 
      "inputs": [[845, 0, 0], [848, 0, 0]]
    }, 
    {
      "op": "Activation", 
      "name": "activation58", 
      "attrs": {"act_type": "tanh"}, 
      "inputs": [[849, 0, 0]]
    }, 
    {
      "op": "elemwise_mul", 
      "name": "encoder_birnn_forward_l0_t58_out", 
      "inputs": [[843, 0, 0], [850, 0, 0]]
    }, 
    {
      "op": "expand_dims", 
      "name": "expand_dims58", 
      "attrs": {"axis": "0"}, 
      "inputs": [[851, 0, 0]]
    }, 
    {
      "op": "FullyConnected", 
      "name": "encoder_birnn_forward_l0_t59_i2h", 
      "attrs": {"num_hidden": "2048"}, 
      "inputs": [[20, 59, 0], [21, 0, 0], [22, 0, 0]]
    }, 
    {
      "op": "FullyConnected", 
      "name": "encoder_birnn_forward_l0_t59_h2h", 
      "attrs": {"num_hidden": "2048"}, 
      "inputs": [[851, 0, 0], [25, 0, 0], [26, 0, 0]]
    }, 
    {
      "op": "elemwise_add", 
      "name": "_plus59", 
      "inputs": [[853, 0, 0], [854, 0, 0]]
    }, 
    {
      "op": "SliceChannel", 
      "name": "encoder_birnn_forward_l0_t59_slice", 
      "attrs": {"num_outputs": "4"}, 
      "inputs": [[855, 0, 0]]
    }, 
    {
      "op": "Activation", 
      "name": "encoder_birnn_forward_l0_t59_o", 
      "attrs": {"act_type": "sigmoid"}, 
      "inputs": [[856, 3, 0]]
    }, 
    {
      "op": "Activation", 
      "name": "encoder_birnn_forward_l0_t59_f", 
      "attrs": {"act_type": "sigmoid"}, 
      "inputs": [[856, 1, 0]]
    }, 
    {
      "op": "elemwise_mul", 
      "name": "_mul118", 
      "inputs": [[858, 0, 0], [849, 0, 0]]
    }, 
    {
      "op": "Activation", 
      "name": "encoder_birnn_forward_l0_t59_i", 
      "attrs": {"act_type": "sigmoid"}, 
      "inputs": [[856, 0, 0]]
    }, 
    {
      "op": "Activation", 
      "name": "encoder_birnn_forward_l0_t59_c", 
      "attrs": {"act_type": "tanh"}, 
      "inputs": [[856, 2, 0]]
    }, 
    {
      "op": "elemwise_mul", 
      "name": "_mul119", 
      "inputs": [[860, 0, 0], [861, 0, 0]]
    }, 
    {
      "op": "elemwise_add", 
      "name": "encoder_birnn_forward_l0_t59_state", 
      "inputs": [[859, 0, 0], [862, 0, 0]]
    }, 
    {
      "op": "Activation", 
      "name": "activation59", 
      "attrs": {"act_type": "tanh"}, 
      "inputs": [[863, 0, 0]]
    }, 
    {
      "op": "elemwise_mul", 
      "name": "encoder_birnn_forward_l0_t59_out", 
      "inputs": [[857, 0, 0], [864, 0, 0]]
    }, 
    {
      "op": "expand_dims", 
      "name": "expand_dims59", 
      "attrs": {"axis": "0"}, 
      "inputs": [[865, 0, 0]]
    }, 
    {
      "op": "FullyConnected", 
      "name": "encoder_birnn_forward_l0_t60_i2h", 
      "attrs": {"num_hidden": "2048"}, 
      "inputs": [[20, 60, 0], [21, 0, 0], [22, 0, 0]]
    }, 
    {
      "op": "FullyConnected", 
      "name": "encoder_birnn_forward_l0_t60_h2h", 
      "attrs": {"num_hidden": "2048"}, 
      "inputs": [[865, 0, 0], [25, 0, 0], [26, 0, 0]]
    }, 
    {
      "op": "elemwise_add", 
      "name": "_plus60", 
      "inputs": [[867, 0, 0], [868, 0, 0]]
    }, 
    {
      "op": "SliceChannel", 
      "name": "encoder_birnn_forward_l0_t60_slice", 
      "attrs": {"num_outputs": "4"}, 
      "inputs": [[869, 0, 0]]
    }, 
    {
      "op": "Activation", 
      "name": "encoder_birnn_forward_l0_t60_o", 
      "attrs": {"act_type": "sigmoid"}, 
      "inputs": [[870, 3, 0]]
    }, 
    {
      "op": "Activation", 
      "name": "encoder_birnn_forward_l0_t60_f", 
      "attrs": {"act_type": "sigmoid"}, 
      "inputs": [[870, 1, 0]]
    }, 
    {
      "op": "elemwise_mul", 
      "name": "_mul120", 
      "inputs": [[872, 0, 0], [863, 0, 0]]
    }, 
    {
      "op": "Activation", 
      "name": "encoder_birnn_forward_l0_t60_i", 
      "attrs": {"act_type": "sigmoid"}, 
      "inputs": [[870, 0, 0]]
    }, 
    {
      "op": "Activation", 
      "name": "encoder_birnn_forward_l0_t60_c", 
      "attrs": {"act_type": "tanh"}, 
      "inputs": [[870, 2, 0]]
    }, 
    {
      "op": "elemwise_mul", 
      "name": "_mul121", 
      "inputs": [[874, 0, 0], [875, 0, 0]]
    }, 
    {
      "op": "elemwise_add", 
      "name": "encoder_birnn_forward_l0_t60_state", 
      "inputs": [[873, 0, 0], [876, 0, 0]]
    }, 
    {
      "op": "Activation", 
      "name": "activation60", 
      "attrs": {"act_type": "tanh"}, 
      "inputs": [[877, 0, 0]]
    }, 
    {
      "op": "elemwise_mul", 
      "name": "encoder_birnn_forward_l0_t60_out", 
      "inputs": [[871, 0, 0], [878, 0, 0]]
    }, 
    {
      "op": "expand_dims", 
      "name": "expand_dims60", 
      "attrs": {"axis": "0"}, 
      "inputs": [[879, 0, 0]]
    }, 
    {
      "op": "FullyConnected", 
      "name": "encoder_birnn_forward_l0_t61_i2h", 
      "attrs": {"num_hidden": "2048"}, 
      "inputs": [[20, 61, 0], [21, 0, 0], [22, 0, 0]]
    }, 
    {
      "op": "FullyConnected", 
      "name": "encoder_birnn_forward_l0_t61_h2h", 
      "attrs": {"num_hidden": "2048"}, 
      "inputs": [[879, 0, 0], [25, 0, 0], [26, 0, 0]]
    }, 
    {
      "op": "elemwise_add", 
      "name": "_plus61", 
      "inputs": [[881, 0, 0], [882, 0, 0]]
    }, 
    {
      "op": "SliceChannel", 
      "name": "encoder_birnn_forward_l0_t61_slice", 
      "attrs": {"num_outputs": "4"}, 
      "inputs": [[883, 0, 0]]
    }, 
    {
      "op": "Activation", 
      "name": "encoder_birnn_forward_l0_t61_o", 
      "attrs": {"act_type": "sigmoid"}, 
      "inputs": [[884, 3, 0]]
    }, 
    {
      "op": "Activation", 
      "name": "encoder_birnn_forward_l0_t61_f", 
      "attrs": {"act_type": "sigmoid"}, 
      "inputs": [[884, 1, 0]]
    }, 
    {
      "op": "elemwise_mul", 
      "name": "_mul122", 
      "inputs": [[886, 0, 0], [877, 0, 0]]
    }, 
    {
      "op": "Activation", 
      "name": "encoder_birnn_forward_l0_t61_i", 
      "attrs": {"act_type": "sigmoid"}, 
      "inputs": [[884, 0, 0]]
    }, 
    {
      "op": "Activation", 
      "name": "encoder_birnn_forward_l0_t61_c", 
      "attrs": {"act_type": "tanh"}, 
      "inputs": [[884, 2, 0]]
    }, 
    {
      "op": "elemwise_mul", 
      "name": "_mul123", 
      "inputs": [[888, 0, 0], [889, 0, 0]]
    }, 
    {
      "op": "elemwise_add", 
      "name": "encoder_birnn_forward_l0_t61_state", 
      "inputs": [[887, 0, 0], [890, 0, 0]]
    }, 
    {
      "op": "Activation", 
      "name": "activation61", 
      "attrs": {"act_type": "tanh"}, 
      "inputs": [[891, 0, 0]]
    }, 
    {
      "op": "elemwise_mul", 
      "name": "encoder_birnn_forward_l0_t61_out", 
      "inputs": [[885, 0, 0], [892, 0, 0]]
    }, 
    {
      "op": "expand_dims", 
      "name": "expand_dims61", 
      "attrs": {"axis": "0"}, 
      "inputs": [[893, 0, 0]]
    }, 
    {
      "op": "FullyConnected", 
      "name": "encoder_birnn_forward_l0_t62_i2h", 
      "attrs": {"num_hidden": "2048"}, 
      "inputs": [[20, 62, 0], [21, 0, 0], [22, 0, 0]]
    }, 
    {
      "op": "FullyConnected", 
      "name": "encoder_birnn_forward_l0_t62_h2h", 
      "attrs": {"num_hidden": "2048"}, 
      "inputs": [[893, 0, 0], [25, 0, 0], [26, 0, 0]]
    }, 
    {
      "op": "elemwise_add", 
      "name": "_plus62", 
      "inputs": [[895, 0, 0], [896, 0, 0]]
    }, 
    {
      "op": "SliceChannel", 
      "name": "encoder_birnn_forward_l0_t62_slice", 
      "attrs": {"num_outputs": "4"}, 
      "inputs": [[897, 0, 0]]
    }, 
    {
      "op": "Activation", 
      "name": "encoder_birnn_forward_l0_t62_o", 
      "attrs": {"act_type": "sigmoid"}, 
      "inputs": [[898, 3, 0]]
    }, 
    {
      "op": "Activation", 
      "name": "encoder_birnn_forward_l0_t62_f", 
      "attrs": {"act_type": "sigmoid"}, 
      "inputs": [[898, 1, 0]]
    }, 
    {
      "op": "elemwise_mul", 
      "name": "_mul124", 
      "inputs": [[900, 0, 0], [891, 0, 0]]
    }, 
    {
      "op": "Activation", 
      "name": "encoder_birnn_forward_l0_t62_i", 
      "attrs": {"act_type": "sigmoid"}, 
      "inputs": [[898, 0, 0]]
    }, 
    {
      "op": "Activation", 
      "name": "encoder_birnn_forward_l0_t62_c", 
      "attrs": {"act_type": "tanh"}, 
      "inputs": [[898, 2, 0]]
    }, 
    {
      "op": "elemwise_mul", 
      "name": "_mul125", 
      "inputs": [[902, 0, 0], [903, 0, 0]]
    }, 
    {
      "op": "elemwise_add", 
      "name": "encoder_birnn_forward_l0_t62_state", 
      "inputs": [[901, 0, 0], [904, 0, 0]]
    }, 
    {
      "op": "Activation", 
      "name": "activation62", 
      "attrs": {"act_type": "tanh"}, 
      "inputs": [[905, 0, 0]]
    }, 
    {
      "op": "elemwise_mul", 
      "name": "encoder_birnn_forward_l0_t62_out", 
      "inputs": [[899, 0, 0], [906, 0, 0]]
    }, 
    {
      "op": "expand_dims", 
      "name": "expand_dims62", 
      "attrs": {"axis": "0"}, 
      "inputs": [[907, 0, 0]]
    }, 
    {
      "op": "FullyConnected", 
      "name": "encoder_birnn_forward_l0_t63_i2h", 
      "attrs": {"num_hidden": "2048"}, 
      "inputs": [[20, 63, 0], [21, 0, 0], [22, 0, 0]]
    }, 
    {
      "op": "FullyConnected", 
      "name": "encoder_birnn_forward_l0_t63_h2h", 
      "attrs": {"num_hidden": "2048"}, 
      "inputs": [[907, 0, 0], [25, 0, 0], [26, 0, 0]]
    }, 
    {
      "op": "elemwise_add", 
      "name": "_plus63", 
      "inputs": [[909, 0, 0], [910, 0, 0]]
    }, 
    {
      "op": "SliceChannel", 
      "name": "encoder_birnn_forward_l0_t63_slice", 
      "attrs": {"num_outputs": "4"}, 
      "inputs": [[911, 0, 0]]
    }, 
    {
      "op": "Activation", 
      "name": "encoder_birnn_forward_l0_t63_o", 
      "attrs": {"act_type": "sigmoid"}, 
      "inputs": [[912, 3, 0]]
    }, 
    {
      "op": "Activation", 
      "name": "encoder_birnn_forward_l0_t63_f", 
      "attrs": {"act_type": "sigmoid"}, 
      "inputs": [[912, 1, 0]]
    }, 
    {
      "op": "elemwise_mul", 
      "name": "_mul126", 
      "inputs": [[914, 0, 0], [905, 0, 0]]
    }, 
    {
      "op": "Activation", 
      "name": "encoder_birnn_forward_l0_t63_i", 
      "attrs": {"act_type": "sigmoid"}, 
      "inputs": [[912, 0, 0]]
    }, 
    {
      "op": "Activation", 
      "name": "encoder_birnn_forward_l0_t63_c", 
      "attrs": {"act_type": "tanh"}, 
      "inputs": [[912, 2, 0]]
    }, 
    {
      "op": "elemwise_mul", 
      "name": "_mul127", 
      "inputs": [[916, 0, 0], [917, 0, 0]]
    }, 
    {
      "op": "elemwise_add", 
      "name": "encoder_birnn_forward_l0_t63_state", 
      "inputs": [[915, 0, 0], [918, 0, 0]]
    }, 
    {
      "op": "Activation", 
      "name": "activation63", 
      "attrs": {"act_type": "tanh"}, 
      "inputs": [[919, 0, 0]]
    }, 
    {
      "op": "elemwise_mul", 
      "name": "encoder_birnn_forward_l0_t63_out", 
      "inputs": [[913, 0, 0], [920, 0, 0]]
    }, 
    {
      "op": "expand_dims", 
      "name": "expand_dims63", 
      "attrs": {"axis": "0"}, 
      "inputs": [[921, 0, 0]]
    }, 
    {
      "op": "FullyConnected", 
      "name": "encoder_birnn_forward_l0_t64_i2h", 
      "attrs": {"num_hidden": "2048"}, 
      "inputs": [[20, 64, 0], [21, 0, 0], [22, 0, 0]]
    }, 
    {
      "op": "FullyConnected", 
      "name": "encoder_birnn_forward_l0_t64_h2h", 
      "attrs": {"num_hidden": "2048"}, 
      "inputs": [[921, 0, 0], [25, 0, 0], [26, 0, 0]]
    }, 
    {
      "op": "elemwise_add", 
      "name": "_plus64", 
      "inputs": [[923, 0, 0], [924, 0, 0]]
    }, 
    {
      "op": "SliceChannel", 
      "name": "encoder_birnn_forward_l0_t64_slice", 
      "attrs": {"num_outputs": "4"}, 
      "inputs": [[925, 0, 0]]
    }, 
    {
      "op": "Activation", 
      "name": "encoder_birnn_forward_l0_t64_o", 
      "attrs": {"act_type": "sigmoid"}, 
      "inputs": [[926, 3, 0]]
    }, 
    {
      "op": "Activation", 
      "name": "encoder_birnn_forward_l0_t64_f", 
      "attrs": {"act_type": "sigmoid"}, 
      "inputs": [[926, 1, 0]]
    }, 
    {
      "op": "elemwise_mul", 
      "name": "_mul128", 
      "inputs": [[928, 0, 0], [919, 0, 0]]
    }, 
    {
      "op": "Activation", 
      "name": "encoder_birnn_forward_l0_t64_i", 
      "attrs": {"act_type": "sigmoid"}, 
      "inputs": [[926, 0, 0]]
    }, 
    {
      "op": "Activation", 
      "name": "encoder_birnn_forward_l0_t64_c", 
      "attrs": {"act_type": "tanh"}, 
      "inputs": [[926, 2, 0]]
    }, 
    {
      "op": "elemwise_mul", 
      "name": "_mul129", 
      "inputs": [[930, 0, 0], [931, 0, 0]]
    }, 
    {
      "op": "elemwise_add", 
      "name": "encoder_birnn_forward_l0_t64_state", 
      "inputs": [[929, 0, 0], [932, 0, 0]]
    }, 
    {
      "op": "Activation", 
      "name": "activation64", 
      "attrs": {"act_type": "tanh"}, 
      "inputs": [[933, 0, 0]]
    }, 
    {
      "op": "elemwise_mul", 
      "name": "encoder_birnn_forward_l0_t64_out", 
      "inputs": [[927, 0, 0], [934, 0, 0]]
    }, 
    {
      "op": "expand_dims", 
      "name": "expand_dims64", 
      "attrs": {"axis": "0"}, 
      "inputs": [[935, 0, 0]]
    }, 
    {
      "op": "FullyConnected", 
      "name": "encoder_birnn_forward_l0_t65_i2h", 
      "attrs": {"num_hidden": "2048"}, 
      "inputs": [[20, 65, 0], [21, 0, 0], [22, 0, 0]]
    }, 
    {
      "op": "FullyConnected", 
      "name": "encoder_birnn_forward_l0_t65_h2h", 
      "attrs": {"num_hidden": "2048"}, 
      "inputs": [[935, 0, 0], [25, 0, 0], [26, 0, 0]]
    }, 
    {
      "op": "elemwise_add", 
      "name": "_plus65", 
      "inputs": [[937, 0, 0], [938, 0, 0]]
    }, 
    {
      "op": "SliceChannel", 
      "name": "encoder_birnn_forward_l0_t65_slice", 
      "attrs": {"num_outputs": "4"}, 
      "inputs": [[939, 0, 0]]
    }, 
    {
      "op": "Activation", 
      "name": "encoder_birnn_forward_l0_t65_o", 
      "attrs": {"act_type": "sigmoid"}, 
      "inputs": [[940, 3, 0]]
    }, 
    {
      "op": "Activation", 
      "name": "encoder_birnn_forward_l0_t65_f", 
      "attrs": {"act_type": "sigmoid"}, 
      "inputs": [[940, 1, 0]]
    }, 
    {
      "op": "elemwise_mul", 
      "name": "_mul130", 
      "inputs": [[942, 0, 0], [933, 0, 0]]
    }, 
    {
      "op": "Activation", 
      "name": "encoder_birnn_forward_l0_t65_i", 
      "attrs": {"act_type": "sigmoid"}, 
      "inputs": [[940, 0, 0]]
    }, 
    {
      "op": "Activation", 
      "name": "encoder_birnn_forward_l0_t65_c", 
      "attrs": {"act_type": "tanh"}, 
      "inputs": [[940, 2, 0]]
    }, 
    {
      "op": "elemwise_mul", 
      "name": "_mul131", 
      "inputs": [[944, 0, 0], [945, 0, 0]]
    }, 
    {
      "op": "elemwise_add", 
      "name": "encoder_birnn_forward_l0_t65_state", 
      "inputs": [[943, 0, 0], [946, 0, 0]]
    }, 
    {
      "op": "Activation", 
      "name": "activation65", 
      "attrs": {"act_type": "tanh"}, 
      "inputs": [[947, 0, 0]]
    }, 
    {
      "op": "elemwise_mul", 
      "name": "encoder_birnn_forward_l0_t65_out", 
      "inputs": [[941, 0, 0], [948, 0, 0]]
    }, 
    {
      "op": "expand_dims", 
      "name": "expand_dims65", 
      "attrs": {"axis": "0"}, 
      "inputs": [[949, 0, 0]]
    }, 
    {
      "op": "FullyConnected", 
      "name": "encoder_birnn_forward_l0_t66_i2h", 
      "attrs": {"num_hidden": "2048"}, 
      "inputs": [[20, 66, 0], [21, 0, 0], [22, 0, 0]]
    }, 
    {
      "op": "FullyConnected", 
      "name": "encoder_birnn_forward_l0_t66_h2h", 
      "attrs": {"num_hidden": "2048"}, 
      "inputs": [[949, 0, 0], [25, 0, 0], [26, 0, 0]]
    }, 
    {
      "op": "elemwise_add", 
      "name": "_plus66", 
      "inputs": [[951, 0, 0], [952, 0, 0]]
    }, 
    {
      "op": "SliceChannel", 
      "name": "encoder_birnn_forward_l0_t66_slice", 
      "attrs": {"num_outputs": "4"}, 
      "inputs": [[953, 0, 0]]
    }, 
    {
      "op": "Activation", 
      "name": "encoder_birnn_forward_l0_t66_o", 
      "attrs": {"act_type": "sigmoid"}, 
      "inputs": [[954, 3, 0]]
    }, 
    {
      "op": "Activation", 
      "name": "encoder_birnn_forward_l0_t66_f", 
      "attrs": {"act_type": "sigmoid"}, 
      "inputs": [[954, 1, 0]]
    }, 
    {
      "op": "elemwise_mul", 
      "name": "_mul132", 
      "inputs": [[956, 0, 0], [947, 0, 0]]
    }, 
    {
      "op": "Activation", 
      "name": "encoder_birnn_forward_l0_t66_i", 
      "attrs": {"act_type": "sigmoid"}, 
      "inputs": [[954, 0, 0]]
    }, 
    {
      "op": "Activation", 
      "name": "encoder_birnn_forward_l0_t66_c", 
      "attrs": {"act_type": "tanh"}, 
      "inputs": [[954, 2, 0]]
    }, 
    {
      "op": "elemwise_mul", 
      "name": "_mul133", 
      "inputs": [[958, 0, 0], [959, 0, 0]]
    }, 
    {
      "op": "elemwise_add", 
      "name": "encoder_birnn_forward_l0_t66_state", 
      "inputs": [[957, 0, 0], [960, 0, 0]]
    }, 
    {
      "op": "Activation", 
      "name": "activation66", 
      "attrs": {"act_type": "tanh"}, 
      "inputs": [[961, 0, 0]]
    }, 
    {
      "op": "elemwise_mul", 
      "name": "encoder_birnn_forward_l0_t66_out", 
      "inputs": [[955, 0, 0], [962, 0, 0]]
    }, 
    {
      "op": "expand_dims", 
      "name": "expand_dims66", 
      "attrs": {"axis": "0"}, 
      "inputs": [[963, 0, 0]]
    }, 
    {
      "op": "FullyConnected", 
      "name": "encoder_birnn_forward_l0_t67_i2h", 
      "attrs": {"num_hidden": "2048"}, 
      "inputs": [[20, 67, 0], [21, 0, 0], [22, 0, 0]]
    }, 
    {
      "op": "FullyConnected", 
      "name": "encoder_birnn_forward_l0_t67_h2h", 
      "attrs": {"num_hidden": "2048"}, 
      "inputs": [[963, 0, 0], [25, 0, 0], [26, 0, 0]]
    }, 
    {
      "op": "elemwise_add", 
      "name": "_plus67", 
      "inputs": [[965, 0, 0], [966, 0, 0]]
    }, 
    {
      "op": "SliceChannel", 
      "name": "encoder_birnn_forward_l0_t67_slice", 
      "attrs": {"num_outputs": "4"}, 
      "inputs": [[967, 0, 0]]
    }, 
    {
      "op": "Activation", 
      "name": "encoder_birnn_forward_l0_t67_o", 
      "attrs": {"act_type": "sigmoid"}, 
      "inputs": [[968, 3, 0]]
    }, 
    {
      "op": "Activation", 
      "name": "encoder_birnn_forward_l0_t67_f", 
      "attrs": {"act_type": "sigmoid"}, 
      "inputs": [[968, 1, 0]]
    }, 
    {
      "op": "elemwise_mul", 
      "name": "_mul134", 
      "inputs": [[970, 0, 0], [961, 0, 0]]
    }, 
    {
      "op": "Activation", 
      "name": "encoder_birnn_forward_l0_t67_i", 
      "attrs": {"act_type": "sigmoid"}, 
      "inputs": [[968, 0, 0]]
    }, 
    {
      "op": "Activation", 
      "name": "encoder_birnn_forward_l0_t67_c", 
      "attrs": {"act_type": "tanh"}, 
      "inputs": [[968, 2, 0]]
    }, 
    {
      "op": "elemwise_mul", 
      "name": "_mul135", 
      "inputs": [[972, 0, 0], [973, 0, 0]]
    }, 
    {
      "op": "elemwise_add", 
      "name": "encoder_birnn_forward_l0_t67_state", 
      "inputs": [[971, 0, 0], [974, 0, 0]]
    }, 
    {
      "op": "Activation", 
      "name": "activation67", 
      "attrs": {"act_type": "tanh"}, 
      "inputs": [[975, 0, 0]]
    }, 
    {
      "op": "elemwise_mul", 
      "name": "encoder_birnn_forward_l0_t67_out", 
      "inputs": [[969, 0, 0], [976, 0, 0]]
    }, 
    {
      "op": "expand_dims", 
      "name": "expand_dims67", 
      "attrs": {"axis": "0"}, 
      "inputs": [[977, 0, 0]]
    }, 
    {
      "op": "FullyConnected", 
      "name": "encoder_birnn_forward_l0_t68_i2h", 
      "attrs": {"num_hidden": "2048"}, 
      "inputs": [[20, 68, 0], [21, 0, 0], [22, 0, 0]]
    }, 
    {
      "op": "FullyConnected", 
      "name": "encoder_birnn_forward_l0_t68_h2h", 
      "attrs": {"num_hidden": "2048"}, 
      "inputs": [[977, 0, 0], [25, 0, 0], [26, 0, 0]]
    }, 
    {
      "op": "elemwise_add", 
      "name": "_plus68", 
      "inputs": [[979, 0, 0], [980, 0, 0]]
    }, 
    {
      "op": "SliceChannel", 
      "name": "encoder_birnn_forward_l0_t68_slice", 
      "attrs": {"num_outputs": "4"}, 
      "inputs": [[981, 0, 0]]
    }, 
    {
      "op": "Activation", 
      "name": "encoder_birnn_forward_l0_t68_o", 
      "attrs": {"act_type": "sigmoid"}, 
      "inputs": [[982, 3, 0]]
    }, 
    {
      "op": "Activation", 
      "name": "encoder_birnn_forward_l0_t68_f", 
      "attrs": {"act_type": "sigmoid"}, 
      "inputs": [[982, 1, 0]]
    }, 
    {
      "op": "elemwise_mul", 
      "name": "_mul136", 
      "inputs": [[984, 0, 0], [975, 0, 0]]
    }, 
    {
      "op": "Activation", 
      "name": "encoder_birnn_forward_l0_t68_i", 
      "attrs": {"act_type": "sigmoid"}, 
      "inputs": [[982, 0, 0]]
    }, 
    {
      "op": "Activation", 
      "name": "encoder_birnn_forward_l0_t68_c", 
      "attrs": {"act_type": "tanh"}, 
      "inputs": [[982, 2, 0]]
    }, 
    {
      "op": "elemwise_mul", 
      "name": "_mul137", 
      "inputs": [[986, 0, 0], [987, 0, 0]]
    }, 
    {
      "op": "elemwise_add", 
      "name": "encoder_birnn_forward_l0_t68_state", 
      "inputs": [[985, 0, 0], [988, 0, 0]]
    }, 
    {
      "op": "Activation", 
      "name": "activation68", 
      "attrs": {"act_type": "tanh"}, 
      "inputs": [[989, 0, 0]]
    }, 
    {
      "op": "elemwise_mul", 
      "name": "encoder_birnn_forward_l0_t68_out", 
      "inputs": [[983, 0, 0], [990, 0, 0]]
    }, 
    {
      "op": "expand_dims", 
      "name": "expand_dims68", 
      "attrs": {"axis": "0"}, 
      "inputs": [[991, 0, 0]]
    }, 
    {
      "op": "FullyConnected", 
      "name": "encoder_birnn_forward_l0_t69_i2h", 
      "attrs": {"num_hidden": "2048"}, 
      "inputs": [[20, 69, 0], [21, 0, 0], [22, 0, 0]]
    }, 
    {
      "op": "FullyConnected", 
      "name": "encoder_birnn_forward_l0_t69_h2h", 
      "attrs": {"num_hidden": "2048"}, 
      "inputs": [[991, 0, 0], [25, 0, 0], [26, 0, 0]]
    }, 
    {
      "op": "elemwise_add", 
      "name": "_plus69", 
      "inputs": [[993, 0, 0], [994, 0, 0]]
    }, 
    {
      "op": "SliceChannel", 
      "name": "encoder_birnn_forward_l0_t69_slice", 
      "attrs": {"num_outputs": "4"}, 
      "inputs": [[995, 0, 0]]
    }, 
    {
      "op": "Activation", 
      "name": "encoder_birnn_forward_l0_t69_o", 
      "attrs": {"act_type": "sigmoid"}, 
      "inputs": [[996, 3, 0]]
    }, 
    {
      "op": "Activation", 
      "name": "encoder_birnn_forward_l0_t69_f", 
      "attrs": {"act_type": "sigmoid"}, 
      "inputs": [[996, 1, 0]]
    }, 
    {
      "op": "elemwise_mul", 
      "name": "_mul138", 
      "inputs": [[998, 0, 0], [989, 0, 0]]
    }, 
    {
      "op": "Activation", 
      "name": "encoder_birnn_forward_l0_t69_i", 
      "attrs": {"act_type": "sigmoid"}, 
      "inputs": [[996, 0, 0]]
    }, 
    {
      "op": "Activation", 
      "name": "encoder_birnn_forward_l0_t69_c", 
      "attrs": {"act_type": "tanh"}, 
      "inputs": [[996, 2, 0]]
    }, 
    {
      "op": "elemwise_mul", 
      "name": "_mul139", 
      "inputs": [[1000, 0, 0], [1001, 0, 0]]
    }, 
    {
      "op": "elemwise_add", 
      "name": "encoder_birnn_forward_l0_t69_state", 
      "inputs": [[999, 0, 0], [1002, 0, 0]]
    }, 
    {
      "op": "Activation", 
      "name": "activation69", 
      "attrs": {"act_type": "tanh"}, 
      "inputs": [[1003, 0, 0]]
    }, 
    {
      "op": "elemwise_mul", 
      "name": "encoder_birnn_forward_l0_t69_out", 
      "inputs": [[997, 0, 0], [1004, 0, 0]]
    }, 
    {
      "op": "expand_dims", 
      "name": "expand_dims69", 
      "attrs": {"axis": "0"}, 
      "inputs": [[1005, 0, 0]]
    }, 
    {
      "op": "FullyConnected", 
      "name": "encoder_birnn_forward_l0_t70_i2h", 
      "attrs": {"num_hidden": "2048"}, 
      "inputs": [[20, 70, 0], [21, 0, 0], [22, 0, 0]]
    }, 
    {
      "op": "FullyConnected", 
      "name": "encoder_birnn_forward_l0_t70_h2h", 
      "attrs": {"num_hidden": "2048"}, 
      "inputs": [[1005, 0, 0], [25, 0, 0], [26, 0, 0]]
    }, 
    {
      "op": "elemwise_add", 
      "name": "_plus70", 
      "inputs": [[1007, 0, 0], [1008, 0, 0]]
    }, 
    {
      "op": "SliceChannel", 
      "name": "encoder_birnn_forward_l0_t70_slice", 
      "attrs": {"num_outputs": "4"}, 
      "inputs": [[1009, 0, 0]]
    }, 
    {
      "op": "Activation", 
      "name": "encoder_birnn_forward_l0_t70_o", 
      "attrs": {"act_type": "sigmoid"}, 
      "inputs": [[1010, 3, 0]]
    }, 
    {
      "op": "Activation", 
      "name": "encoder_birnn_forward_l0_t70_f", 
      "attrs": {"act_type": "sigmoid"}, 
      "inputs": [[1010, 1, 0]]
    }, 
    {
      "op": "elemwise_mul", 
…
    17803, 
    17804, 
    17805, 
    17806, 
    17807, 
    17808, 
    17809, 
    17810, 
    17811, 
    17812, 
    17813, 
    17814, 
    17815, 
    17819, 
    17820, 
    17821, 
    17822, 
    17823, 
    17824, 
    17825, 
    17826, 
    17827, 
    17828, 
    17829, 
    17830, 
    17831, 
    17835, 
    17836, 
    17837, 
    17838, 
    17839, 
    17840, 
    17841, 
    17842, 
    17843, 
    17844, 
    17845, 
    17846, 
    17847, 
    17851, 
    17852, 
    17853, 
    17854, 
    17855, 
    17856, 
    17857, 
    17858, 
    17859, 
    17860, 
    17861, 
    17862, 
    17863, 
    17864, 
    17865, 
    17866, 
    17867, 
    17869, 
    17870, 
    17871, 
    17872, 
    17873, 
    17874, 
    17875, 
    17879, 
    17880, 
    17881, 
    17882, 
    17883, 
    17884, 
    17885, 
    17886, 
    17887, 
    17888, 
    17889, 
    17890, 
    17891, 
    17895, 
    17896, 
    17897, 
    17898, 
    17899, 
    17900, 
    17901, 
    17902, 
    17903, 
    17904, 
    17905, 
    17906, 
    17907, 
    17911, 
    17912, 
    17913, 
    17914, 
    17915, 
    17916, 
    17917, 
    17918, 
    17919, 
    17920, 
    17921, 
    17922, 
    17923, 
    17927, 
    17928, 
    17929, 
    17930, 
    17931, 
    17932, 
    17933, 
    17934, 
    17935, 
    17936, 
    17937, 
    17938, 
    17939, 
    17943, 
    17944, 
    17945, 
    17946, 
    17947, 
    17948, 
    17949, 
    17950, 
    17951, 
    17952, 
    17953, 
    17954, 
    17955, 
    17959, 
    17960, 
    17961, 
    17962, 
    17963, 
    17964, 
    17965, 
    17966, 
    17967, 
    17968, 
    17969, 
    17970, 
    17971, 
    17972, 
    17973, 
    17974, 
    17975, 
    17977, 
    17978, 
    17979, 
    17980, 
    17981, 
    17982, 
    17983, 
    17987, 
    17988, 
    17989, 
    17990, 
    17991, 
    17992, 
    17993, 
    17994, 
    17995, 
    17996, 
    17997, 
    17998, 
    17999, 
    18003, 
    18004, 
    18005, 
    18006, 
    18007, 
    18008, 
    18009, 
    18010, 
    18011, 
    18012, 
    18013, 
    18014, 
    18015, 
    18019, 
    18020, 
    18021, 
    18022, 
    18023, 
    18024, 
    18025, 
    18026, 
    18027, 
    18028, 
    18029, 
    18030, 
    18031, 
    18035, 
    18036, 
    18037, 
    18038, 
    18039, 
    18040, 
    18041, 
    18042, 
    18043, 
    18044, 
    18045, 
    18046, 
    18047, 
    18051, 
    18052, 
    18053, 
    18054, 
    18055, 
    18056, 
    18057, 
    18058, 
    18059, 
    18060, 
    18061, 
    18062, 
    18063, 
    18067, 
    18068, 
    18069, 
    18070, 
    18071, 
    18072, 
    18073, 
    18074, 
    18075, 
    18076, 
    18077, 
    18078, 
    18079, 
    18080, 
    18081, 
    18082, 
    18083, 
    18085, 
    18086, 
    18087, 
    18088, 
    18089, 
    18090, 
    18091, 
    18095, 
    18096, 
    18097, 
    18098, 
    18099, 
    18100, 
    18101, 
    18102, 
    18103, 
    18104, 
    18105, 
    18106, 
    18107, 
    18111, 
    18112, 
    18113, 
    18114, 
    18115, 
    18116, 
    18117, 
    18118, 
    18119, 
    18120, 
    18121, 
    18122, 
    18123, 
    18127, 
    18128, 
    18129, 
    18130, 
    18131, 
    18132, 
    18133, 
    18134, 
    18135, 
    18136, 
    18137, 
    18138, 
    18139, 
    18143, 
    18144, 
    18145, 
    18146, 
    18147, 
    18148, 
    18149, 
    18150, 
    18151, 
    18152, 
    18153, 
    18154, 
    18155, 
    18159, 
    18160, 
    18161, 
    18162, 
    18163, 
    18164, 
    18165, 
    18166, 
    18167, 
    18168, 
    18169, 
    18170, 
    18171, 
    18175, 
    18176, 
    18177, 
    18178, 
    18179, 
    18180, 
    18181, 
    18182, 
    18183, 
    18184, 
    18185, 
    18186, 
    18187, 
    18188, 
    18189, 
    18190, 
    18191, 
    18193, 
    18194, 
    18195, 
    18196, 
    18197, 
    18198, 
    18199, 
    18203, 
    18204, 
    18205, 
    18206, 
    18207, 
    18208, 
    18209, 
    18210, 
    18211, 
    18212, 
    18213, 
    18214, 
    18215, 
    18219, 
    18220, 
    18221, 
    18222, 
    18223, 
    18224, 
    18225, 
    18226, 
    18227, 
    18228, 
    18229, 
    18230, 
    18231, 
    18235, 
    18236, 
    18237, 
    18238, 
    18239, 
    18240, 
    18241, 
    18242, 
    18243, 
    18244, 
    18245, 
    18246, 
    18247, 
    18251, 
    18252, 
    18253, 
    18254, 
    18255, 
    18256, 
    18257, 
    18258, 
    18259, 
    18260, 
    18261, 
    18262, 
    18263, 
    18267, 
    18268, 
    18269, 
    18270, 
    18271, 
    18272, 
    18273, 
    18274, 
    18275, 
    18276, 
    18277, 
    18278, 
    18279, 
    18283, 
    18284, 
    18285, 
    18286, 
    18287, 
    18288, 
    18289, 
    18290, 
    18291, 
    18292, 
    18293, 
    18294, 
    18295, 
    18296, 
    18297, 
    18298, 
    18299, 
    18301, 
    18302, 
    18303, 
    18304, 
    18305, 
    18306, 
    18307, 
    18311, 
    18312, 
    18313, 
    18314, 
    18315, 
    18316, 
    18317, 
    18318, 
    18319, 
    18320, 
    18321, 
    18322, 
    18323, 
    18327, 
    18328, 
    18329, 
    18330, 
    18331, 
    18332, 
    18333, 
    18334, 
    18335, 
    18336, 
    18337, 
    18338, 
    18339, 
    18343, 
    18344, 
    18345, 
    18346, 
    18347, 
    18348, 
    18349, 
    18350, 
    18351, 
    18352, 
    18353, 
    18354, 
    18355, 
    18359, 
    18360, 
    18361, 
    18362, 
    18363, 
    18364, 
    18365, 
    18366, 
    18367, 
    18368, 
    18369, 
    18370, 
    18371, 
    18375, 
    18376, 
    18377, 
    18378, 
    18379, 
    18380, 
    18381, 
    18382, 
    18383, 
    18384, 
    18385, 
    18386, 
    18387, 
    18391, 
    18392, 
    18393, 
    18394, 
    18395, 
    18396, 
    18397, 
    18398, 
    18399, 
    18400, 
    18401, 
    18402, 
    18403, 
    18404, 
    18405, 
    18406, 
    18407, 
    18409, 
    18410, 
    18411, 
    18412, 
    18413, 
    18414, 
    18415, 
    18419, 
    18420, 
    18421, 
    18422, 
    18423, 
    18424, 
    18425, 
    18426, 
    18427, 
    18428, 
    18429, 
    18430, 
    18431, 
    18435, 
    18436, 
    18437, 
    18438, 
    18439, 
    18440, 
    18441, 
    18442, 
    18443, 
    18444, 
    18445, 
    18446, 
    18447, 
    18451, 
    18452, 
    18453, 
    18454, 
    18455, 
    18456, 
    18457, 
    18458, 
    18459, 
    18460, 
    18461, 
    18462, 
    18463, 
    18467, 
    18468, 
    18469, 
    18470, 
    18471, 
    18472, 
    18473, 
    18474, 
    18475, 
    18476, 
    18477, 
    18478, 
    18479, 
    18483, 
    18484, 
    18485, 
    18486, 
    18487, 
    18488, 
    18489, 
    18490, 
    18491, 
    18492, 
    18493, 
    18494, 
    18495, 
    18499, 
    18500, 
    18501, 
    18502, 
    18503, 
    18504, 
    18505, 
    18506, 
    18507, 
    18508, 
    18509, 
    18510, 
    18511, 
    18512, 
    18513, 
    18514, 
    18515, 
    18517, 
    18518, 
    18519, 
    18520, 
    18521, 
    18522, 
    18523, 
    18527, 
    18528, 
    18529, 
    18530, 
    18531, 
    18532, 
    18533, 
    18534, 
    18535, 
    18536, 
    18537, 
    18538, 
    18539, 
    18543, 
    18544, 
    18545, 
    18546, 
    18547, 
    18548, 
    18549, 
    18550, 
    18551, 
    18552, 
    18553, 
    18554, 
    18555, 
    18559, 
    18560, 
    18561, 
    18562, 
    18563, 
    18564, 
    18565, 
    18566, 
    18567, 
    18568, 
    18569, 
    18570, 
    18571, 
    18575, 
    18576, 
    18577, 
    18578, 
    18579, 
    18580, 
    18581, 
    18582, 
    18583, 
    18584, 
    18585, 
    18586, 
    18587, 
    18591, 
    18592, 
    18593, 
    18594, 
    18595, 
    18596, 
    18597, 
    18598, 
    18599, 
    18600, 
    18601, 
    18602, 
    18603, 
    18607, 
    18608, 
    18609, 
    18610, 
    18611, 
    18612, 
    18613, 
    18614, 
    18615, 
    18616, 
    18617, 
    18618, 
    18619, 
    18620, 
    18621, 
    18622, 
    18623, 
    18625, 
    18626, 
    18627, 
    18628, 
    18629, 
    18630, 
    18631, 
    18635, 
    18636, 
    18637, 
    18638, 
    18639, 
    18640, 
    18641, 
    18642, 
    18643, 
    18644, 
    18645, 
    18646, 
    18647, 
    18651, 
    18652, 
    18653, 
    18654, 
    18655, 
    18656, 
    18657, 
    18658, 
    18659, 
    18660, 
    18661, 
    18662, 
    18663, 
    18667, 
    18668, 
    18669, 
    18670, 
    18671, 
    18672, 
    18673, 
    18674, 
    18675, 
    18676, 
    18677, 
    18678, 
    18679, 
    18683, 
    18684, 
    18685, 
    18686, 
    18687, 
    18688, 
    18689, 
    18690, 
    18691, 
    18692, 
    18693, 
    18694, 
    18695, 
    18699, 
    18700, 
    18701, 
    18702, 
    18703, 
    18704, 
    18705, 
    18706, 
    18707, 
    18708, 
    18709, 
    18710, 
    18711, 
    18715, 
    18716, 
    18717, 
    18718, 
    18719, 
    18720, 
    18721, 
    18722, 
    18723, 
    18724, 
    18725, 
    18726, 
    18727, 
    18728, 
    18729, 
    18730, 
    18731, 
    18733, 
    18734, 
    18735, 
    18736, 
    18737, 
    18738, 
    18739, 
    18743, 
    18744, 
    18745, 
    18746, 
    18747, 
    18748, 
    18749, 
    18750, 
    18751, 
    18752, 
    18753, 
    18754, 
    18755, 
    18759, 
    18760, 
    18761, 
    18762, 
    18763, 
    18764, 
    18765, 
    18766, 
    18767, 
    18768, 
    18769, 
    18770, 
    18771, 
    18775, 
    18776, 
    18777, 
    18778, 
    18779, 
    18780, 
    18781, 
    18782, 
    18783, 
    18784, 
    18785, 
    18786, 
    18787, 
    18791, 
    18792, 
    18793, 
    18794, 
    18795, 
    18796, 
    18797, 
    18798, 
    18799, 
    18800, 
    18801, 
    18802, 
    18803, 
    18807, 
    18808, 
    18809, 
    18810, 
    18811, 
    18812, 
    18813, 
    18814, 
    18815, 
    18816, 
    18817, 
    18818, 
    18819, 
    18823, 
    18824, 
    18825, 
    18826, 
    18827, 
    18828, 
    18829, 
    18830, 
    18831, 
    18832, 
    18833, 
    18834, 
    18835, 
    18836, 
    18837, 
    18838, 
    18839, 
    18841, 
    18842, 
    18843, 
    18844, 
    18845, 
    18846, 
    18847, 
    18851, 
    18852, 
    18853, 
    18854, 
    18855, 
    18856, 
    18857, 
    18858, 
    18859, 
    18860, 
    18861, 
    18862, 
    18863, 
    18867, 
    18868, 
    18869, 
    18870, 
    18871, 
    18872, 
    18873, 
    18874, 
    18875, 
    18876, 
    18877, 
    18878, 
    18879, 
    18883, 
    18884, 
    18885, 
    18886, 
    18887, 
    18888, 
    18889, 
    18890, 
    18891, 
    18892, 
    18893, 
    18894, 
    18895, 
    18899, 
    18900, 
    18901, 
    18902, 
    18903, 
    18904, 
    18905, 
    18906, 
    18907, 
    18908, 
    18909, 
    18910, 
    18911, 
    18915, 
    18916, 
    18917, 
    18918, 
    18919, 
    18920, 
    18921, 
    18922, 
    18923, 
    18924, 
    18925, 
    18926, 
    18927, 
    18931, 
    18932, 
    18933, 
    18934, 
    18935, 
    18936, 
    18937, 
    18938, 
    18939, 
    18940, 
    18941, 
    18942, 
    18943, 
    18944, 
    18945, 
    18946, 
    18947, 
    18949, 
    18950, 
    18951, 
    18952, 
    18953, 
    18954, 
    18955, 
    18959, 
    18960, 
    18961, 
    18962, 
    18963, 
    18964, 
    18965, 
    18966, 
    18967, 
    18968, 
    18969, 
    18970, 
    18971, 
    18975, 
    18976, 
    18977, 
    18978, 
    18979, 
    18980, 
    18981, 
    18982, 
    18983, 
    18984, 
    18985, 
    18986, 
    18987, 
    18991, 
    18992, 
    18993, 
    18994, 
    18995, 
    18996, 
    18997, 
    18998, 
    18999, 
    19000, 
    19001, 
    19002, 
    19003, 
    19007, 
    19008, 
    19009, 
    19010, 
    19011, 
    19012, 
    19013, 
    19014, 
    19015, 
    19016, 
    19017, 
    19018, 
    19019, 
    19023, 
    19024, 
    19025, 
    19026, 
    19027, 
    19028, 
    19029, 
    19030, 
    19031, 
    19032, 
    19033, 
    19034, 
    19035, 
    19039, 
    19040, 
    19041, 
    19042, 
    19043, 
    19044, 
    19045, 
    19046, 
    19047, 
    19048, 
    19049, 
    19050, 
    19051, 
    19052, 
    19053, 
    19054, 
    19055, 
    19057, 
    19058, 
    19059, 
    19060, 
    19061, 
    19062, 
    19063, 
    19067, 
    19068, 
    19069, 
    19070, 
    19071, 
    19072, 
    19073, 
    19074, 
    19075, 
    19076, 
    19077, 
    19078, 
    19079, 
    19083, 
    19084, 
    19085, 
    19086, 
    19087, 
    19088, 
    19089, 
    19090, 
    19091, 
    19092, 
    19093, 
    19094, 
    19095, 
    19099, 
    19100, 
    19101, 
    19102, 
    19103, 
    19104, 
    19105, 
    19106, 
    19107, 
    19108, 
    19109, 
    19110, 
    19111, 
    19115, 
    19116, 
    19117, 
    19118, 
    19119, 
    19120, 
    19121, 
    19122, 
    19123, 
    19124, 
    19125, 
    19126, 
    19127, 
    19131, 
    19132, 
    19133, 
    19134, 
    19135, 
    19136, 
    19137, 
    19138, 
    19139, 
    19140, 
    19141, 
    19142, 
    19143, 
    19147, 
    19148, 
    19149, 
    19150, 
    19151, 
    19152, 
    19153, 
    19154, 
    19155, 
    19156, 
    19157, 
    19158, 
    19159, 
    19160, 
    19161, 
    19162, 
    19163, 
    19165, 
    19166, 
    19167, 
    19168, 
    19169, 
    19170, 
    19171, 
    19175, 
    19176, 
    19177, 
    19178, 
    19179, 
    19180, 
    19181, 
    19182, 
    19183, 
    19184, 
    19185, 
    19186, 
    19187, 
    19191, 
    19192, 
    19193, 
    19194, 
    19195, 
    19196, 
    19197, 
    19198, 
    19199, 
    19200, 
    19201, 
    19202, 
    19203, 
    19207, 
    19208, 
    19209, 
    19210, 
    19211, 
    19212, 
    19213, 
    19214, 
    19215, 
    19216, 
    19217, 
    19218, 
    19219, 
    19223, 
    19224, 
    19225, 
    19226, 
    19227, 
    19228, 
    19229, 
    19230, 
    19231, 
    19232, 
    19233, 
    19234, 
    19235, 
    19239, 
    19240, 
    19241, 
    19242, 
    19243, 
    19244, 
    19245, 
    19246, 
    19247, 
    19248, 
    19249, 
    19250, 
    19251, 
    19255, 
    19256, 
    19257, 
    19258, 
    19259, 
    19260, 
    19261, 
    19262, 
    19263, 
    19264, 
    19265, 
    19266, 
    19267, 
    19268, 
    19269, 
    19270, 
    19271, 
    19273, 
    19274, 
    19275, 
    19276, 
    19277, 
    19278, 
    19279, 
    19283, 
    19284, 
    19285, 
    19286, 
    19287, 
    19288, 
    19289, 
    19290, 
    19291, 
    19292, 
    19293, 
    19294, 
    19295, 
    19299, 
    19300, 
    19301, 
    19302, 
    19303, 
    19304, 
    19305, 
    19306, 
    19307, 
    19308, 
    19309, 
    19310, 
    19311, 
    19315, 
    19316, 
    19317, 
    19318, 
    19319, 
    19320, 
    19321, 
    19322, 
    19323, 
    19324, 
    19325, 
    19326, 
    19327, 
    19331, 
    19332, 
    19333, 
    19334, 
    19335, 
    19336, 
    19337, 
    19338, 
    19339, 
    19340, 
    19341, 
    19342, 
    19343, 
    19347, 
    19348, 
    19349, 
    19350, 
    19351, 
    19352, 
    19353, 
    19354, 
    19355, 
    19356, 
    19357, 
    19358, 
    19359, 
    19363, 
    19364, 
    19365, 
    19366, 
    19367, 
    19368, 
    19369, 
    19370, 
    19371, 
    19372, 
    19373, 
    19374, 
    19375, 
    19376, 
    19377, 
    19378, 
    19379, 
    19381, 
    19382, 
    19383, 
    19384, 
    19385, 
    19386, 
    19387, 
    19391, 
    19392, 
    19393, 
    19394, 
    19395, 
    19396, 
    19397, 
    19398, 
    19399, 
    19400, 
    19401, 
    19402, 
    19403, 
    19407, 
    19408, 
    19409, 
    19410, 
    19411, 
    19412, 
    19413, 
    19414, 
    19415, 
    19416, 
    19417, 
    19418, 
    19419, 
    19423, 
    19424, 
    19425, 
    19426, 
    19427, 
    19428, 
    19429, 
    19430, 
    19431, 
    19432, 
    19433, 
    19434, 
    19435, 
    19439, 
    19440, 
    19441, 
    19442, 
    19443, 
    19444, 
    19445, 
    19446, 
    19447, 
    19448, 
    19449, 
    19450, 
    19451, 
    19455, 
    19456, 
    19457, 
    19458, 
    19459, 
    19460, 
    19461, 
    19462, 
    19463, 
    19464, 
    19465, 
    19466, 
    19467, 
    19471, 
    19472, 
    19473, 
    19474, 
    19475, 
    19476, 
    19477, 
    19478, 
    19479, 
    19480, 
    19481, 
    19482, 
    19483, 
    19484, 
    19485, 
    19486, 
    19487, 
    19489, 
    19490, 
    19491, 
    19492, 
    19493, 
    19494, 
    19495, 
    19499, 
    19500, 
    19501, 
    19502, 
    19503, 
    19504, 
    19505, 
    19506, 
    19507, 
    19508, 
    19509, 
    19510, 
    19511, 
    19515, 
    19516, 
    19517, 
    19518, 
    19519, 
    19520, 
    19521, 
    19522, 
    19523, 
    19524, 
    19525, 
    19526, 
    19527, 
    19531, 
    19532, 
    19533, 
    19534, 
    19535, 
    19536, 
    19537, 
    19538, 
    19539, 
    19540, 
    19541, 
    19542, 
    19543, 
    19547, 
    19548, 
    19549, 
    19550, 
    19551, 
    19552, 
    19553, 
    19554, 
    19555, 
    19556, 
    19557, 
    19558, 
    19559, 
    19563, 
    19564, 
    19565, 
    19566, 
    19567, 
    19568, 
    19569, 
    19570, 
    19571, 
    19572, 
    19573, 
    19574, 
    19575, 
    19579, 
    19580, 
    19581, 
    19582, 
    19583, 
    19584, 
    19585, 
    19586, 
    19587, 
    19588, 
    19589, 
    19590, 
    19591, 
    19592, 
    19593, 
    19594, 
    19595, 
    19597, 
    19598, 
    19599, 
    19600, 
    19601, 
    19602, 
    19603, 
    19607, 
    19608, 
    19609, 
    19610, 
    19611, 
    19612, 
    19613, 
    19614, 
    19615, 
    19616, 
    19617, 
    19618, 
    19619, 
    19623, 
    19624, 
    19625, 
    19626, 
    19627, 
    19628, 
    19629, 
    19630, 
    19631, 
    19632, 
    19633, 
    19634, 
    19635, 
    19639, 
    19640, 
    19641, 
    19642, 
    19643, 
    19644, 
    19645, 
    19646, 
    19647, 
    19648, 
    19649, 
    19650, 
    19651, 
    19655, 
    19656, 
    19657, 
    19658, 
    19659, 
    19660, 
    19661, 
    19662, 
    19663, 
    19664, 
    19665, 
    19666, 
    19667, 
    19671, 
    19672, 
    19673, 
    19674, 
    19675, 
    19676, 
    19677, 
    19678, 
    19679, 
    19680, 
    19681, 
    19682, 
    19683, 
    19687, 
    19688, 
    19689, 
    19690, 
    19691, 
    19692, 
    19693, 
    19694, 
    19695, 
    19696, 
    19697, 
    19698, 
    19699, 
    19700, 
    19701, 
    19702, 
    19703, 
    19705, 
    19706, 
    19707, 
    19708, 
    19709, 
    19710, 
    19711, 
    19715, 
    19716, 
    19717, 
    19718, 
    19719, 
    19720, 
    19721, 
    19722, 
    19723, 
    19724, 
    19725, 
    19726, 
    19727, 
    19731, 
    19732, 
    19733, 
    19734, 
    19735, 
    19736, 
    19737, 
    19738, 
    19739, 
    19740, 
    19741, 
    19742, 
    19743, 
    19747, 
    19748, 
    19749, 
    19750, 
    19751, 
    19752, 
    19753, 
    19754, 
    19755, 
    19756, 
    19757, 
    19758, 
    19759, 
    19763, 
    19764, 
    19765, 
    19766, 
    19767, 
    19768, 
    19769, 
    19770, 
    19771, 
    19772, 
    19773, 
    19774, 
    19775, 
    19779, 
    19780, 
    19781, 
    19782, 
    19783, 
    19784, 
    19785, 
    19786, 
    19787, 
    19788, 
    19789, 
    19790, 
    19791, 
    19795, 
    19796, 
    19797, 
    19798, 
    19799, 
    19800, 
    19801, 
    19802, 
    19803, 
    19804, 
    19805, 
    19806, 
    19807, 
    19808, 
    19809, 
    19810, 
    19811, 
    19813, 
    19814, 
    19815, 
    19816, 
    19817, 
    19818, 
    19819, 
    19823, 
    19824, 
    19825, 
    19826, 
    19827, 
    19828, 
    19829, 
    19830, 
    19831, 
    19832, 
    19833, 
    19834, 
    19835, 
    19839, 
    19840, 
    19841, 
    19842, 
    19843, 
    19844, 
    19845, 
    19846, 
    19847, 
    19848, 
    19849, 
    19850, 
    19851, 
    19855, 
    19856, 
    19857, 
    19858, 
    19859, 
    19860, 
    19861, 
    19862, 
    19863, 
    19864, 
    19865, 
    19866, 
    19867, 
    19871, 
    19872, 
    19873, 
    19874, 
    19875, 
    19876, 
    19877, 
    19878, 
    19879, 
    19880, 
    19881, 
    19882, 
    19883, 
    19887, 
    19888, 
    19889, 
    19890, 
    19891, 
    19892, 
    19893, 
    19894, 
    19895, 
    19896, 
    19897, 
    19898, 
    19899, 
    19903, 
    19904, 
    19905, 
    19906, 
    19907, 
    19908, 
    19909, 
    19910, 
    19911, 
    19912, 
    19913, 
    19914, 
    19915, 
    19916, 
    19917, 
    19918, 
    19919, 
    19921, 
    19922, 
    19923, 
    19924, 
    19925, 
    19926, 
    19927, 
    19931, 
    19932, 
    19933, 
    19934, 
    19935, 
    19936, 
    19937, 
    19938, 
    19939, 
    19940, 
    19941, 
    19942, 
    19943, 
    19947, 
    19948, 
    19949, 
    19950, 
    19951, 
    19952, 
    19953, 
    19954, 
    19955, 
    19956, 
    19957, 
    19958, 
    19959, 
    19963, 
    19964, 
    19965, 
    19966, 
    19967, 
    19968, 
    19969, 
    19970, 
    19971, 
    19972, 
    19973, 
    19974, 
    19975, 
    19979, 
    19980, 
    19981, 
    19982, 
    19983, 
    19984, 
    19985, 
    19986, 
    19987, 
    19988, 
    19989, 
    19990, 
    19991, 
    19995, 
    19996, 
    19997, 
    19998, 
    19999, 
    20000, 
    20001, 
    20002, 
    20003, 
    20004, 
    20005, 
    20006, 
    20007, 
    20011, 
    20012, 
    20013, 
    20014, 
    20015, 
    20016, 
    20017, 
    20018, 
    20019, 
    20020, 
    20021, 
    20022, 
    20023, 
    20024, 
    20025, 
    20026, 
    20027, 
    20029, 
    20030, 
    20031, 
    20032, 
    20033, 
    20034, 
    20035, 
    20039, 
    20040, 
    20041, 
    20042, 
    20043, 
    20044, 
    20045, 
    20046, 
    20047, 
    20048, 
    20049, 
    20050, 
    20051, 
    20055, 
    20056, 
    20057, 
    20058, 
    20059, 
    20060, 
    20061, 
    20062, 
    20063, 
    20064, 
    20065, 
    20066, 
    20067, 
    20071, 
    20072, 
    20073, 
    20074, 
    20075, 
    20076, 
    20077, 
    20078, 
    20079, 
    20080, 
    20081, 
    20082, 
    20083, 
    20087, 
    20088, 
    20089, 
    20090, 
    20091, 
    20092, 
    20093, 
    20094, 
    20095, 
    20096, 
    20097, 
    20098, 
    20099, 
    20103, 
    20104, 
    20105, 
    20106, 
    20107, 
    20108, 
    20109, 
    20110, 
    20111, 
    20112, 
    20113, 
    20114, 
    20115, 
    20119, 
    20120, 
    20121, 
    20122, 
    20123, 
    20124, 
    20125, 
    20126, 
    20127, 
    20128, 
    20129, 
    20130, 
    20131, 
    20132, 
    20133, 
    20134, 
    20135, 
    20137, 
    20138, 
    20139, 
    20140, 
    20141, 
    20142, 
    20143, 
    20147, 
    20148, 
    20149, 
    20150, 
    20151, 
    20152, 
    20153, 
    20154, 
    20155, 
    20156, 
    20157, 
    20158, 
    20159, 
    20163, 
    20164, 
    20165, 
    20166, 
    20167, 
    20168, 
    20169, 
    20170, 
    20171, 
    20172, 
    20173, 
    20174, 
    20175, 
    20179, 
    20180, 
    20181, 
    20182, 
    20183, 
    20184, 
    20185, 
    20186, 
    20187, 
    20188, 
    20189, 
    20190, 
    20191, 
    20195, 
    20196, 
    20197, 
    20198, 
    20199, 
    20200, 
    20201, 
    20202, 
    20203, 
    20204, 
    20205, 
    20206, 
    20207, 
    20211, 
    20212, 
    20213, 
    20214, 
    20215, 
    20216, 
    20217, 
    20218, 
    20219, 
    20220, 
    20221, 
    20222, 
    20223, 
    20227, 
    20228, 
    20229, 
    20230, 
    20231, 
    20232, 
    20233, 
    20234, 
    20235, 
    20236, 
    20237, 
    20238, 
    20239, 
    20240, 
    20241, 
    20242, 
    20243, 
    20245, 
    20246, 
    20247, 
    20248, 
    20249, 
    20250, 
    20251, 
    20255, 
    20256, 
    20257, 
    20258, 
    20259, 
    20260, 
    20261, 
    20262, 
    20263, 
    20264, 
    20265, 
    20266, 
    20267, 
    20271, 
    20272, 
    20273, 
    20274, 
    20275, 
    20276, 
    20277, 
    20278, 
    20279, 
    20280, 
    20281, 
    20282, 
    20283, 
    20287, 
    20288, 
    20289, 
    20290, 
    20291, 
    20292, 
    20293, 
    20294, 
    20295, 
    20296, 
    20297, 
    20298, 
    20299, 
    20303, 
    20304, 
    20305, 
    20306, 
    20307, 
    20308, 
    20309, 
    20310, 
    20311, 
    20312, 
    20313, 
    20314, 
    20315, 
    20319, 
    20320, 
    20321, 
    20322, 
    20323, 
    20324, 
    20325, 
    20326, 
    20327, 
    20328, 
    20329, 
    20330, 
    20331, 
    20335, 
    20336, 
    20337, 
    20338, 
    20339, 
    20340, 
    20341, 
    20342, 
    20343, 
    20344, 
    20345, 
    20346, 
    20347, 
    20348, 
    20349, 
    20350, 
    20351, 
    20353, 
    20354, 
    20355, 
    20356, 
    20357, 
    20358, 
    20359, 
    20363, 
    20364, 
    20365, 
    20366, 
    20367, 
    20368, 
    20369, 
    20370, 
    20371, 
    20372, 
    20373, 
    20374, 
    20375, 
    20379, 
    20380, 
    20381, 
    20382, 
    20383, 
    20384, 
    20385, 
    20386, 
    20387, 
    20388, 
    20389, 
    20390, 
    20391, 
    20395, 
    20396, 
    20397, 
    20398, 
    20399, 
    20400, 
    20401, 
    20402, 
    20403, 
    20404, 
    20405, 
    20406, 
    20407, 
    20411, 
    20412, 
    20413, 
    20414, 
    20415, 
    20416, 
    20417, 
    20418, 
    20419, 
    20420, 
    20421, 
    20422, 
    20423, 
    20427, 
    20428, 
    20429, 
    20430, 
    20431, 
    20432, 
    20433, 
    20434, 
    20435, 
    20436, 
    20437, 
    20438, 
    20439, 
    20443, 
    20444, 
    20445, 
    20446, 
    20447, 
    20448, 
    20449, 
    20450, 
    20451, 
    20452, 
    20453, 
    20454, 
    20455, 
    20456, 
    20457, 
    20458, 
    20459, 
    20461, 
    20462, 
    20463, 
    20464, 
    20465, 
    20466, 
    20467, 
    20471, 
    20472, 
    20473, 
    20474, 
    20475, 
    20476, 
    20477, 
    20478, 
    20479, 
    20480, 
    20481, 
    20482, 
    20483, 
    20487, 
    20488, 
    20489, 
    20490, 
    20491, 
    20492, 
    20493, 
    20494, 
    20495, 
    20496, 
    20497, 
    20498, 
    20499, 
    20503, 
    20504, 
    20505, 
    20506, 
    20507, 
    20508, 
    20509, 
    20510, 
    20511, 
    20512, 
    20513, 
    20514, 
    20515, 
    20519, 
    20520, 
    20521, 
    20522, 
    20523, 
    20524, 
    20525, 
    20526, 
    20527, 
    20528, 
    20529, 
    20530, 
    20531, 
    20535, 
    20536, 
    20537, 
    20538, 
    20539, 
    20540, 
    20541, 
    20542, 
    20543, 
    20544, 
    20545, 
    20546, 
    20547, 
    20551, 
    20552, 
    20553, 
    20554, 
    20555, 
    20556, 
    20557, 
    20558, 
    20559, 
    20560, 
    20561, 
    20562, 
    20563, 
    20564, 
    20565, 
    20566, 
    20567, 
    20569, 
    20570, 
    20571, 
    20572, 
    20573, 
    20574, 
    20575, 
    20579, 
    20580, 
    20581, 
    20582, 
    20583, 
    20584, 
    20585, 
    20586, 
    20587, 
    20588, 
    20589, 
    20590, 
    20591, 
    20595, 
    20596, 
    20597, 
    20598, 
    20599, 
    20600, 
    20601, 
    20602, 
    20603, 
    20604, 
    20605, 
    20606, 
    20607, 
    20611, 
    20612, 
    20613, 
    20614, 
    20615, 
    20616, 
    20617, 
    20618, 
    20619, 
    20620, 
    20621, 
    20622, 
    20623, 
    20627, 
    20628, 
    20629, 
    20630, 
    20631, 
    20632, 
    20633, 
    20634, 
    20635, 
    20636, 
    20637, 
    20638, 
    20639, 
    20643, 
    20644, 
    20645, 
    20646, 
    20647, 
    20648, 
    20649, 
    20650, 
    20651, 
    20652, 
    20653, 
    20654, 
    20655, 
    20659, 
    20660, 
    20661, 
    20662, 
    20663, 
    20664, 
    20665, 
    20666, 
    20667, 
    20668, 
    20669, 
    20670, 
    20671, 
    20672, 
    20673, 
    20674, 
    20675, 
    20677, 
    20678, 
    20679, 
    20680, 
    20681, 
    20682, 
    20683, 
    20687, 
    20688, 
    20689, 
    20690, 
    20691, 
    20692, 
    20693, 
    20694, 
    20695, 
    20696, 
    20697, 
    20698, 
    20699, 
    20703, 
    20704, 
    20705, 
    20706, 
    20707, 
    20708, 
    20709, 
    20710, 
    20711, 
    20712, 
    20713, 
    20714, 
    20715, 
    20719, 
    20720, 
    20721, 
    20722, 
    20723, 
    20724, 
    20725, 
    20726, 
    20727, 
    20728, 
    20729, 
    20730, 
    20731, 
    20735, 
    20736, 
    20737, 
    20738, 
    20739, 
    20740, 
    20741, 
    20742, 
    20743, 
    20744, 
    20745, 
    20746, 
    20747, 
    20751, 
    20752, 
    20753, 
    20754, 
    20755, 
    20756, 
    20757, 
    20758, 
    20759, 
    20760, 
    20761, 
    20762, 
    20763, 
    20767, 
    20768, 
    20769, 
    20770, 
    20771, 
    20772, 
    20773, 
    20774, 
    20775, 
    20776, 
    20777, 
    20778, 
    20779, 
    20780, 
    20781, 
    20782, 
    20783, 
    20785, 
    20786, 
    20787, 
    20788, 
    20789, 
    20790, 
    20791, 
    20795, 
    20796, 
    20797, 
    20798, 
    20799, 
    20800, 
    20801, 
    20802, 
    20803, 
    20804, 
    20805, 
    20806, 
    20807, 
    20811, 
    20812, 
    20813, 
    20814, 
    20815, 
    20816, 
    20817, 
    20818, 
    20819, 
    20820, 
    20821, 
    20822, 
    20823, 
    20827, 
    20828, 
    20829, 
    20830, 
    20831, 
    20832, 
    20833, 
    20834, 
    20835, 
    20836, 
    20837, 
    20838, 
    20839, 
    20843, 
    20844, 
    20845, 
    20846, 
    20847, 
    20848, 
    20849, 
    20850, 
    20851, 
    20852, 
    20853, 
    20854, 
    20855, 
    20859, 
    20860, 
    20861, 
    20862, 
    20863, 
    20864, 
    20865, 
    20866, 
    20867, 
    20868, 
    20869, 
    20870, 
    20871, 
    20875, 
    20876, 
    20877, 
    20878, 
    20879, 
    20880, 
    20881, 
    20882, 
    20883, 
    20884, 
    20885, 
    20886, 
    20887, 
    20888, 
    20889, 
    20890, 
    20891, 
    20893, 
    20894, 
    20895, 
    20896, 
    20897, 
    20898, 
    20899, 
    20903, 
    20904, 
    20905, 
    20906, 
    20907, 
    20908, 
    20909, 
    20910, 
    20911, 
    20912, 
    20913, 
    20914, 
    20915, 
    20919, 
    20920, 
    20921, 
    20922, 
    20923, 
    20924, 
    20925, 
    20926, 
    20927, 
    20928, 
    20929, 
    20930, 
    20931, 
    20935, 
    20936, 
    20937, 
    20938, 
    20939, 
    20940, 
    20941, 
    20942, 
    20943, 
    20944, 
    20945, 
    20946, 
    20947, 
    20951, 
    20952, 
    20953, 
    20954, 
    20955, 
    20956, 
    20957, 
    20958, 
    20959, 
    20960, 
    20961, 
    20962, 
    20963, 
    20967, 
    20968, 
    20969, 
    20970, 
    20971, 
    20972, 
    20973, 
    20974, 
    20975, 
    20976, 
    20977, 
    20978, 
    20979, 
    20983, 
    20984, 
    20985, 
    20986, 
    20987, 
    20988, 
    20989, 
    20990, 
    20991, 
    20992, 
    20993, 
    20994, 
    20995, 
    20996, 
    20997, 
    20998, 
    20999, 
    21001, 
    21002, 
    21003, 
    21004, 
    21005, 
    21006, 
    21007, 
    21011, 
    21012, 
    21013, 
    21014, 
    21015, 
    21016, 
    21017, 
    21018, 
    21019, 
    21020, 
    21021, 
    21022, 
    21023, 
    21027, 
    21028, 
    21029, 
    21030, 
    21031, 
    21032, 
    21033, 
    21034, 
    21035, 
    21036, 
    21037, 
    21038, 
    21039, 
    21043, 
    21044, 
    21045, 
    21046, 
    21047, 
    21048, 
    21049, 
    21050, 
    21051, 
    21052, 
    21053, 
    21054, 
    21055, 
    21059, 
    21060, 
    21061, 
    21062, 
    21063, 
    21064, 
    21065, 
    21066, 
    21067, 
    21068, 
    21069, 
    21070, 
    21071, 
    21075, 
    21076, 
    21077, 
    21078, 
    21079, 
    21080, 
    21081, 
    21082, 
    21083, 
    21084, 
    21085, 
    21086, 
    21087, 
    21091, 
    21092, 
    21093, 
    21094, 
    21095, 
    21096, 
    21097, 
    21098, 
    21099, 
    21100, 
    21101, 
    21102, 
    21103, 
    21104, 
    21105, 
    21106, 
    21107, 
    21109, 
    21110, 
    21111, 
    21112, 
    21113, 
    21114, 
    21115, 
    21119, 
    21120, 
    21121, 
    21122, 
    21123, 
    21124, 
    21125, 
    21126, 
    21127, 
    21128, 
    21129, 
    21130, 
    21131, 
    21135, 
    21136, 
    21137, 
    21138, 
    21139, 
    21140, 
    21141, 
    21142, 
    21143, 
    21144, 
    21145, 
    21146, 
    21147, 
    21151, 
    21152, 
    21153, 
    21154, 
    21155, 
    21156, 
    21157, 
    21158, 
    21159, 
    21160, 
    21161, 
    21162, 
    21163, 
    21167, 
    21168, 
    21169, 
    21170, 
    21171, 
    21172, 
    21173, 
    21174, 
    21175, 
    21176, 
    21177, 
    21178, 
    21179, 
    21183, 
    21184, 
    21185, 
    21186, 
    21187, 
    21188, 
    21189, 
    21190, 
    21191, 
    21192, 
    21193, 
    21194, 
    21195, 
    21199, 
    21200, 
    21201, 
    21202, 
    21203, 
    21204, 
    21205, 
    21206, 
    21207, 
    21208, 
    21209, 
    21210, 
    21211, 
    21212, 
    21213, 
    21214, 
    21215, 
    21217, 
    21218, 
    21219, 
    21220, 
    21221, 
    21222, 
    21223, 
    21227, 
    21228, 
    21229, 
    21230, 
    21231, 
    21232, 
    21233, 
    21234, 
    21235, 
    21236, 
    21237, 
    21238, 
    21239, 
    21243, 
    21244, 
    21245, 
    21246, 
    21247, 
    21248, 
    21249, 
    21250, 
    21251, 
    21252, 
    21253, 
    21254, 
    21255, 
    21259, 
    21260, 
    21261, 
    21262, 
    21263, 
    21264, 
    21265, 
    21266, 
    21267, 
    21268, 
    21269, 
    21270, 
    21271, 
    21275, 
    21276, 
    21277, 
    21278, 
    21279, 
    21280, 
    21281, 
    21282, 
    21283, 
    21284, 
    21285, 
    21286, 
    21287, 
    21291, 
    21292, 
    21293, 
    21294, 
    21295, 
    21296, 
    21297, 
    21298, 
    21299, 
    21300, 
    21301, 
    21302, 
    21303, 
    21307, 
    21308, 
    21309, 
    21310, 
    21311, 
    21312, 
    21313, 
    21314, 
    21315, 
    21316, 
    21317, 
    21318, 
    21319, 
    21320, 
    21321, 
    21322, 
    21323, 
    21325, 
    21326, 
    21327, 
    21328, 
    21329, 
    21330, 
    21331, 
    21335, 
    21336, 
    21337, 
    21338, 
    21339, 
    21340, 
    21341, 
    21342, 
    21343, 
    21344, 
    21345, 
    21346, 
    21347, 
    21351, 
    21352, 
    21353, 
    21354, 
    21355, 
    21356, 
    21357, 
    21358, 
    21359, 
    21360, 
    21361, 
    21362, 
    21363, 
    21367, 
    21368, 
    21369, 
    21370, 
    21371, 
    21372, 
    21373, 
    21374, 
    21375, 
    21376, 
    21377, 
    21378, 
    21379, 
    21383, 
    21384, 
    21385, 
    21386, 
    21387, 
    21388, 
    21389, 
    21390, 
    21391, 
    21392, 
    21393, 
    21394, 
    21395, 
    21399, 
    21400, 
    21401, 
    21402, 
    21403, 
    21404, 
    21405, 
    21406, 
    21407, 
    21408, 
    21409, 
    21410, 
    21411, 
    21415, 
    21416, 
    21417, 
    21418, 
    21419, 
    21420, 
    21421, 
    21422, 
    21423, 
    21424, 
    21425, 
    21426, 
    21427, 
    21428, 
    21429, 
    21430, 
    21431, 
    21433, 
    21434, 
    21435, 
    21436, 
    21437, 
    21438, 
    21439, 
    21443, 
    21444, 
    21445, 
    21446, 
    21447, 
    21448, 
    21449, 
    21450, 
    21451, 
    21452, 
    21453, 
    21454, 
    21455, 
    21459, 
    21460, 
    21461, 
    21462, 
    21463, 
    21464, 
    21465, 
    21466, 
    21467, 
    21468, 
    21469, 
    21470, 
    21471, 
    21475, 
    21476, 
    21477, 
    21478, 
    21479, 
    21480, 
    21481, 
    21482, 
    21483, 
    21484, 
    21485, 
    21486, 
    21487, 
    21491, 
    21492, 
    21493, 
    21494, 
    21495, 
    21496, 
    21497, 
    21498, 
    21499, 
    21500, 
    21501, 
    21502, 
    21503, 
    21507, 
    21508, 
    21509, 
    21510, 
    21511, 
    21512, 
    21513, 
    21514, 
    21515, 
    21516, 
    21517, 
    21518, 
    21519, 
    21523, 
    21524, 
    21525, 
    21526, 
    21527, 
    21528, 
    21529, 
    21530, 
    21531, 
    21532, 
    21533, 
    21534, 
    21535, 
    21536, 
    21537, 
    21538, 
    21539, 
    21541, 
    21542, 
    21543, 
    21544, 
    21545, 
    21546, 
    21547, 
    21551, 
    21552, 
    21553, 
    21554, 
    21555, 
    21556, 
    21557, 
    21558, 
    21559, 
    21560, 
    21561, 
    21562, 
    21563, 
    21567, 
    21568, 
    21569, 
    21570, 
    21571, 
    21572, 
    21573, 
    21574, 
    21575, 
    21576, 
    21577, 
    21578, 
    21579, 
    21583, 
    21584, 
    21585, 
    21586, 
    21587, 
    21588, 
    21589, 
    21590, 
    21591, 
    21592, 
    21593, 
    21594, 
    21595, 
    21599, 
    21600, 
    21601, 
    21602, 
    21603, 
    21604, 
    21605, 
    21606, 
    21607, 
    21608, 
    21609, 
    21610, 
    21611, 
    21615, 
    21616, 
    21617, 
    21618, 
    21619, 
    21620, 
    21621, 
    21622, 
    21623, 
    21624, 
    21625, 
    21626, 
    21627, 
    21631, 
    21632, 
    21633, 
    21634, 
    21635, 
    21636, 
    21637, 
    21638, 
    21639, 
    21640, 
    21641, 
    21642, 
    21643, 
    21644, 
    21645, 
    21646, 
    21647, 
    21649, 
    21650, 
    21651, 
    21652, 
    21653, 
    21654, 
    21655, 
    21659, 
    21660, 
    21661, 
    21662, 
    21663, 
    21664, 
    21665, 
    21666, 
    21667, 
    21668, 
    21669, 
    21670, 
    21671, 
    21675, 
    21676, 
    21677, 
    21678, 
    21679, 
    21680, 
    21681, 
    21682, 
    21683, 
    21684, 
    21685, 
    21686, 
    21687, 
    21691, 
    21692, 
    21693, 
    21694, 
    21695, 
    21696, 
    21697, 
    21698, 
    21699, 
    21700, 
    21701, 
    21702, 
    21703, 
    21707, 
    21708, 
    21709, 
    21710, 
    21711, 
    21712, 
    21713, 
    21714, 
    21715, 
    21716, 
    21717, 
    21718, 
    21719, 
    21723, 
    21724, 
    21725, 
    21726, 
    21727, 
    21728, 
    21729, 
    21730, 
    21731, 
    21732, 
    21733, 
    21734, 
    21735, 
    21739, 
    21740, 
    21741, 
    21742, 
    21743, 
    21744, 
    21745, 
    21746, 
    21747, 
    21748, 
    21749, 
    21750, 
    21751, 
    21752, 
    21753, 
    21754, 
    21755, 
    21757, 
    21758, 
    21759, 
    21760, 
    21761, 
    21762, 
    21763, 
    21767, 
    21768, 
    21769, 
    21770, 
    21771, 
    21772, 
    21773, 
    21774, 
    21775, 
    21776, 
    21777, 
    21778, 
    21779, 
    21783, 
    21784, 
    21785, 
    21786, 
    21787, 
    21788, 
    21789, 
    21790, 
    21791, 
    21792, 
    21793, 
    21794, 
    21795, 
    21799, 
    21800, 
    21801, 
    21802, 
    21803, 
    21804, 
    21805, 
    21806, 
    21807, 
    21808, 
    21809, 
    21810, 
    21811, 
    21815, 
    21816, 
    21817, 
    21818, 
    21819, 
    21820, 
    21821, 
    21822, 
    21823, 
    21824, 
    21825, 
    21826, 
    21827, 
    21831, 
    21832, 
    21833, 
    21834, 
    21835, 
    21836, 
    21837, 
    21838, 
    21839, 
    21840, 
    21841, 
    21842, 
    21843, 
    21847, 
    21848, 
    21849, 
    21850, 
    21851, 
    21852, 
    21853, 
    21854, 
    21855, 
    21856, 
    21857, 
    21858, 
    21859, 
    21860, 
    21861, 
    21862, 
    21863, 
    21865, 
    21866, 
    21867, 
    21868, 
    21869, 
    21870, 
    21871, 
    21875, 
    21876, 
    21877, 
    21878, 
    21879, 
    21880, 
    21881, 
    21882, 
    21883, 
    21884, 
    21885, 
    21886, 
    21887, 
    21891, 
    21892, 
    21893, 
    21894, 
    21895, 
    21896, 
    21897, 
    21898, 
    21899, 
    21900, 
    21901, 
    21902, 
    21903, 
    21907, 
    21908, 
    21909, 
    21910, 
    21911, 
    21912, 
    21913, 
    21914, 
    21915, 
    21916, 
    21917, 
    21918, 
    21919, 
    21923, 
    21924, 
    21925, 
    21926, 
    21927, 
    21928, 
    21929, 
    21930, 
    21931, 
    21932, 
    21933, 
    21934, 
    21935, 
    21939, 
    21940, 
    21941, 
    21942, 
    21943, 
    21944, 
    21945, 
    21946, 
    21947, 
    21948, 
    21949, 
    21950, 
    21951, 
    21955, 
    21956, 
    21957, 
    21958, 
    21959, 
    21960, 
    21961, 
    21962, 
    21963, 
    21964, 
    21965, 
    21966, 
    21967, 
    21968, 
    21969, 
    21970, 
    21971, 
    21973, 
    21974, 
    21975, 
    21976, 
    21977, 
    21978, 
    21979, 
    21983, 
    21984, 
    21985, 
    21986, 
    21987, 
    21988, 
    21989, 
    21990, 
    21991, 
    21992, 
    21993, 
    21994, 
    21995, 
    21999, 
    22000, 
    22001, 
    22002, 
    22003, 
    22004, 
    22005, 
    22006, 
    22007, 
    22008, 
    22009, 
    22010, 
    22011, 
    22015, 
    22016, 
    22017, 
    22018, 
    22019, 
    22020, 
    22021, 
    22022, 
    22023, 
    22024, 
    22025, 
    22026, 
    22027, 
    22031, 
    22032, 
    22033, 
    22034, 
    22035, 
    22036, 
    22037, 
    22038, 
    22039, 
    22040, 
    22041, 
    22042, 
    22043, 
    22047, 
    22048, 
    22049, 
    22050, 
    22051, 
    22052, 
    22053, 
    22054, 
    22055, 
    22056, 
    22057, 
    22058, 
    22059, 
    22063, 
    22064, 
    22065, 
    22066, 
    22067, 
    22068, 
    22069, 
    22070, 
    22071, 
    22072, 
    22073, 
    22074, 
    22075, 
    22076, 
    22077, 
    22078, 
    22079, 
    22081, 
    22082, 
    22083, 
    22084, 
    22085, 
    22086, 
    22087, 
    22091, 
    22092, 
    22093, 
    22094, 
    22095, 
    22096, 
    22097, 
    22098, 
    22099, 
    22100, 
    22101, 
    22102, 
    22103, 
    22107, 
    22108, 
    22109, 
    22110, 
    22111, 
    22112, 
    22113, 
    22114, 
    22115, 
    22116, 
    22117, 
    22118, 
    22119, 
    22123, 
    22124, 
    22125, 
    22126, 
    22127, 
    22128, 
    22129, 
    22130, 
    22131, 
    22132, 
    22133, 
    22134, 
    22135, 
    22139, 
    22140, 
    22141, 
    22142, 
    22143, 
    22144, 
    22145, 
    22146, 
    22147, 
    22148, 
    22149, 
    22150, 
    22151, 
    22155, 
    22156, 
    22157, 
    22158, 
    22159, 
    22160, 
    22161, 
    22162, 
    22163, 
    22164, 
    22165, 
    22166, 
    22167, 
    22171, 
    22172, 
    22173, 
    22174, 
    22175, 
    22176, 
    22177, 
    22178, 
    22179, 
    22180, 
    22181, 
    22182, 
    22183, 
    22184, 
    22185, 
    22186, 
    22187, 
    22189, 
    22190, 
    22191, 
    22192, 
    22193, 
    22194, 
    22195, 
    22199, 
    22200, 
    22201, 
    22202, 
    22203, 
    22204, 
    22205, 
    22206, 
    22207, 
    22208, 
    22209, 
    22210, 
    22211, 
    22215, 
    22216, 
    22217, 
    22218, 
    22219, 
    22220, 
    22221, 
    22222, 
    22223, 
    22224, 
    22225, 
    22226, 
    22227, 
    22231, 
    22232, 
    22233, 
    22234, 
    22235, 
    22236, 
    22237, 
    22238, 
    22239, 
    22240, 
    22241, 
    22242, 
    22243, 
    22247, 
    22248, 
    22249, 
    22250, 
    22251, 
    22252, 
    22253, 
    22254, 
    22255, 
    22256, 
    22257, 
    22258, 
    22259, 
    22263, 
    22264, 
    22265, 
    22266, 
    22267, 
    22268, 
    22269, 
    22270, 
    22271, 
    22272, 
    22273, 
    22274, 
    22275, 
    22279, 
    22280, 
    22281, 
    22282, 
    22283, 
    22284, 
    22285, 
    22286, 
    22287, 
    22288, 
    22289, 
    22290, 
    22291, 
    22292, 
    22293, 
    22294, 
    22295, 
    22297, 
    22298, 
    22299, 
    22300, 
    22301, 
    22302, 
    22303, 
    22307, 
    22308, 
    22309, 
    22310, 
    22311, 
    22312, 
    22313, 
    22314, 
    22315, 
    22316, 
    22317, 
    22318, 
    22319, 
    22323, 
    22324, 
    22325, 
    22326, 
    22327, 
    22328, 
    22329, 
    22330, 
    22331, 
    22332, 
    22333, 
    22334, 
    22335, 
    22339, 
    22340, 
    22341, 
    22342, 
    22343, 
    22344, 
    22345, 
    22346, 
    22347, 
    22348, 
    22349, 
    22350, 
    22351, 
    22355, 
    22356, 
    22357, 
    22358, 
    22359, 
    22360, 
    22361, 
    22362, 
    22363, 
    22364, 
    22365, 
    22366, 
    22367, 
    22371, 
    22372, 
    22373, 
    22374, 
    22375, 
    22376, 
    22377, 
    22378, 
    22379, 
    22380, 
    22381, 
    22382, 
    22383, 
    22387, 
    22388, 
    22389, 
    22390, 
    22391, 
    22392, 
    22393, 
    22394, 
    22395, 
    22396, 
    22397, 
    22398, 
    22399, 
    22400, 
    22401, 
    22402, 
    22403, 
    22405, 
    22406, 
    22407, 
    22408, 
    22409, 
    22410, 
    22411, 
    22415, 
    22416, 
    22417, 
    22418, 
    22419, 
    22420, 
    22421, 
    22422, 
    22423, 
    22424, 
    22425, 
    22426, 
    22427, 
    22431, 
    22432, 
    22433, 
    22434, 
    22435, 
    22436, 
    22437, 
    22438, 
    22439, 
    22440, 
    22441, 
    22442, 
    22443, 
    22447, 
    22448, 
    22449, 
    22450, 
    22451, 
    22452, 
    22453, 
    22454, 
    22455, 
    22456, 
    22457, 
    22458, 
    22459, 
    22463, 
    22464, 
    22465, 
    22466, 
    22467, 
    22468, 
    22469, 
    22470, 
    22471, 
    22472, 
    22473, 
    22474, 
    22475, 
    22479, 
    22480, 
    22481, 
    22482, 
    22483, 
    22484, 
    22485, 
    22486, 
    22487, 
    22488, 
    22489, 
    22490, 
    22491, 
    22495, 
    22496, 
    22497, 
    22498, 
    22499, 
    22500, 
    22501, 
    22502, 
    22503, 
    22504, 
    22505, 
    22506, 
    22507, 
    22508, 
    22509, 
    22510, 
    22511, 
    22513, 
    22514, 
    22515, 
    22516, 
    22517, 
    22518, 
    22519, 
    22523, 
    22524, 
    22525, 
    22526, 
    22527, 
    22528, 
    22529, 
    22530, 
    22531, 
    22532, 
    22533, 
    22534, 
    22535, 
    22539, 
    22540, 
    22541, 
    22542, 
    22543, 
    22544, 
    22545, 
    22546, 
    22547, 
    22548, 
    22549, 
    22550, 
    22551, 
    22555, 
    22556, 
    22557, 
    22558, 
    22559, 
    22560, 
    22561, 
    22562, 
    22563, 
    22564, 
    22565, 
    22566, 
    22567, 
    22571, 
    22572, 
    22573, 
    22574, 
    22575, 
    22576, 
    22577, 
    22578, 
    22579, 
    22580, 
    22581, 
    22582, 
    22583, 
    22587, 
    22588, 
    22589, 
    22590, 
    22591, 
    22592, 
    22593, 
    22594, 
    22595, 
    22596, 
    22597, 
    22598, 
    22599, 
    22603, 
    22604, 
    22605, 
    22606, 
    22607, 
    22608, 
    22609, 
    22610, 
    22611, 
    22612, 
    22613, 
    22614, 
    22615, 
    22616, 
    22617, 
    22618, 
    22619, 
    22621, 
    22622, 
    22623, 
    22624, 
    22625, 
    22626, 
    22627, 
    22631, 
    22632, 
    22633, 
    22634, 
    22635, 
    22636, 
    22637, 
    22638, 
    22639, 
    22640, 
    22641, 
    22642, 
    22643, 
    22647, 
    22648, 
    22649, 
    22650, 
    22651, 
    22652, 
    22653, 
    22654, 
    22655, 
    22656, 
    22657, 
    22658, 
    22659, 
    22663, 
    22664, 
    22665, 
    22666, 
    22667, 
    22668, 
    22669, 
    22670, 
    22671, 
    22672, 
    22673, 
    22674, 
    22675, 
    22679, 
    22680, 
    22681, 
    22682, 
    22683, 
    22684, 
    22685, 
    22686, 
    22687, 
    22688, 
    22689, 
    22690, 
    22691, 
    22695, 
    22696, 
    22697, 
    22698, 
    22699, 
    22700, 
    22701, 
    22702, 
    22703, 
    22704, 
    22705, 
    22706, 
    22707, 
    22711, 
    22712, 
    22713, 
    22714, 
    22715, 
    22716, 
    22717, 
    22718, 
    22719, 
    22720, 
    22721, 
    22722, 
    22723, 
    22724, 
    22725, 
    22726, 
    22727, 
    22729, 
    22730, 
    22731, 
    22732, 
    22733, 
    22734, 
    22735, 
    22739, 
    22740, 
    22741, 
    22742, 
    22743, 
    22744, 
    22745, 
    22746, 
    22747, 
    22748, 
    22749, 
    22750, 
    22751, 
    22755, 
    22756, 
    22757, 
    22758, 
    22759, 
    22760, 
    22761, 
    22762, 
    22763, 
    22764, 
    22765, 
    22766, 
    22767, 
    22771, 
    22772, 
    22773, 
    22774, 
    22775, 
    22776, 
    22777, 
    22778, 
    22779, 
    22780, 
    22781, 
    22782, 
    22783, 
    22787, 
    22788, 
    22789, 
    22790, 
    22791, 
    22792, 
    22793, 
    22794, 
    22795, 
    22796, 
    22797, 
    22798, 
    22799, 
    22803, 
    22804, 
    22805, 
    22806, 
    22807, 
    22808, 
    22809, 
    22810, 
    22811, 
    22812, 
    22813, 
    22814, 
    22815, 
    22819, 
    22820, 
    22821, 
    22822, 
    22823, 
    22824, 
    22825, 
    22826, 
    22827, 
    22828, 
    22829, 
    22830, 
    22831, 
    22832, 
    22833, 
    22834, 
    22835, 
    22837, 
    22838, 
    22839, 
    22840, 
    22841, 
    22842, 
    22843, 
    22844, 
    22845, 
    22846, 
    22847
  ], 
  "heads": [[18450, 0, 0]], 
  "attrs": {"mxnet_version": ["int", 10201]}
}